<?xml version="1.0"?>
<net name="main_graph" version="11">
	<layers>
		<layer id="0" name="images" type="Parameter" version="opset1">
			<data shape="1,3,416,416" element_type="f32" />
			<output>
				<port id="0" precision="FP32" names="images">
					<dim>1</dim>
					<dim>3</dim>
					<dim>416</dim>
					<dim>416</dim>
				</port>
			</output>
		</layer>
		<layer id="1" name="/model.22/Constant_9" type="Const" version="opset1">
			<data element_type="f32" shape="1, 2, 3549" offset="0" size="28392" />
			<output>
				<port id="0" precision="FP32" names="/model.22/Constant_9_output_0">
					<dim>1</dim>
					<dim>2</dim>
					<dim>3549</dim>
				</port>
			</output>
		</layer>
		<layer id="2" name="model.0.conv.weight" type="Const" version="opset1">
			<data element_type="f32" shape="16, 3, 3, 3" offset="28392" size="1728" />
			<output>
				<port id="0" precision="FP32" names="model.0.conv.weight">
					<dim>16</dim>
					<dim>3</dim>
					<dim>3</dim>
					<dim>3</dim>
				</port>
			</output>
		</layer>
		<layer id="3" name="/model.0/conv/Conv/WithoutBiases" type="Convolution" version="opset1">
			<data strides="2, 2" dilations="1, 1" pads_begin="1, 1" pads_end="1, 1" auto_pad="explicit" />
			<input>
				<port id="0" precision="FP32">
					<dim>1</dim>
					<dim>3</dim>
					<dim>416</dim>
					<dim>416</dim>
				</port>
				<port id="1" precision="FP32">
					<dim>16</dim>
					<dim>3</dim>
					<dim>3</dim>
					<dim>3</dim>
				</port>
			</input>
			<output>
				<port id="2" precision="FP32">
					<dim>1</dim>
					<dim>16</dim>
					<dim>208</dim>
					<dim>208</dim>
				</port>
			</output>
		</layer>
		<layer id="4" name="Reshape_194" type="Const" version="opset1">
			<data element_type="f32" shape="1, 16, 1, 1" offset="30120" size="64" />
			<output>
				<port id="0" precision="FP32">
					<dim>1</dim>
					<dim>16</dim>
					<dim>1</dim>
					<dim>1</dim>
				</port>
			</output>
		</layer>
		<layer id="5" name="/model.0/conv/Conv" type="Add" version="opset1">
			<data auto_broadcast="numpy" />
			<input>
				<port id="0" precision="FP32">
					<dim>1</dim>
					<dim>16</dim>
					<dim>208</dim>
					<dim>208</dim>
				</port>
				<port id="1" precision="FP32">
					<dim>1</dim>
					<dim>16</dim>
					<dim>1</dim>
					<dim>1</dim>
				</port>
			</input>
			<output>
				<port id="2" precision="FP32" names="/model.0/conv/Conv_output_0">
					<dim>1</dim>
					<dim>16</dim>
					<dim>208</dim>
					<dim>208</dim>
				</port>
			</output>
		</layer>
		<layer id="6" name="/model.0/act/Mul" type="Swish" version="opset4">
			<input>
				<port id="0" precision="FP32">
					<dim>1</dim>
					<dim>16</dim>
					<dim>208</dim>
					<dim>208</dim>
				</port>
			</input>
			<output>
				<port id="1" precision="FP32" names="/model.0/act/Mul_output_0">
					<dim>1</dim>
					<dim>16</dim>
					<dim>208</dim>
					<dim>208</dim>
				</port>
			</output>
		</layer>
		<layer id="7" name="model.1.conv.weight" type="Const" version="opset1">
			<data element_type="f32" shape="32, 16, 3, 3" offset="30184" size="18432" />
			<output>
				<port id="0" precision="FP32" names="model.1.conv.weight">
					<dim>32</dim>
					<dim>16</dim>
					<dim>3</dim>
					<dim>3</dim>
				</port>
			</output>
		</layer>
		<layer id="8" name="/model.1/conv/Conv/WithoutBiases" type="Convolution" version="opset1">
			<data strides="2, 2" dilations="1, 1" pads_begin="1, 1" pads_end="1, 1" auto_pad="explicit" />
			<input>
				<port id="0" precision="FP32">
					<dim>1</dim>
					<dim>16</dim>
					<dim>208</dim>
					<dim>208</dim>
				</port>
				<port id="1" precision="FP32">
					<dim>32</dim>
					<dim>16</dim>
					<dim>3</dim>
					<dim>3</dim>
				</port>
			</input>
			<output>
				<port id="2" precision="FP32">
					<dim>1</dim>
					<dim>32</dim>
					<dim>104</dim>
					<dim>104</dim>
				</port>
			</output>
		</layer>
		<layer id="9" name="Reshape_209" type="Const" version="opset1">
			<data element_type="f32" shape="1, 32, 1, 1" offset="48616" size="128" />
			<output>
				<port id="0" precision="FP32">
					<dim>1</dim>
					<dim>32</dim>
					<dim>1</dim>
					<dim>1</dim>
				</port>
			</output>
		</layer>
		<layer id="10" name="/model.1/conv/Conv" type="Add" version="opset1">
			<data auto_broadcast="numpy" />
			<input>
				<port id="0" precision="FP32">
					<dim>1</dim>
					<dim>32</dim>
					<dim>104</dim>
					<dim>104</dim>
				</port>
				<port id="1" precision="FP32">
					<dim>1</dim>
					<dim>32</dim>
					<dim>1</dim>
					<dim>1</dim>
				</port>
			</input>
			<output>
				<port id="2" precision="FP32" names="/model.1/conv/Conv_output_0">
					<dim>1</dim>
					<dim>32</dim>
					<dim>104</dim>
					<dim>104</dim>
				</port>
			</output>
		</layer>
		<layer id="11" name="/model.1/act/Mul" type="Swish" version="opset4">
			<input>
				<port id="0" precision="FP32">
					<dim>1</dim>
					<dim>32</dim>
					<dim>104</dim>
					<dim>104</dim>
				</port>
			</input>
			<output>
				<port id="1" precision="FP32" names="/model.1/act/Mul_output_0">
					<dim>1</dim>
					<dim>32</dim>
					<dim>104</dim>
					<dim>104</dim>
				</port>
			</output>
		</layer>
		<layer id="12" name="model.2.cv1.conv.weight" type="Const" version="opset1">
			<data element_type="f32" shape="32, 32, 1, 1" offset="48744" size="4096" />
			<output>
				<port id="0" precision="FP32" names="model.2.cv1.conv.weight">
					<dim>32</dim>
					<dim>32</dim>
					<dim>1</dim>
					<dim>1</dim>
				</port>
			</output>
		</layer>
		<layer id="13" name="/model.2/cv1/conv/Conv/WithoutBiases" type="Convolution" version="opset1">
			<data strides="1, 1" dilations="1, 1" pads_begin="0, 0" pads_end="0, 0" auto_pad="explicit" />
			<input>
				<port id="0" precision="FP32">
					<dim>1</dim>
					<dim>32</dim>
					<dim>104</dim>
					<dim>104</dim>
				</port>
				<port id="1" precision="FP32">
					<dim>32</dim>
					<dim>32</dim>
					<dim>1</dim>
					<dim>1</dim>
				</port>
			</input>
			<output>
				<port id="2" precision="FP32">
					<dim>1</dim>
					<dim>32</dim>
					<dim>104</dim>
					<dim>104</dim>
				</port>
			</output>
		</layer>
		<layer id="14" name="Reshape_224" type="Const" version="opset1">
			<data element_type="f32" shape="1, 32, 1, 1" offset="52840" size="128" />
			<output>
				<port id="0" precision="FP32">
					<dim>1</dim>
					<dim>32</dim>
					<dim>1</dim>
					<dim>1</dim>
				</port>
			</output>
		</layer>
		<layer id="15" name="/model.2/cv1/conv/Conv" type="Add" version="opset1">
			<data auto_broadcast="numpy" />
			<input>
				<port id="0" precision="FP32">
					<dim>1</dim>
					<dim>32</dim>
					<dim>104</dim>
					<dim>104</dim>
				</port>
				<port id="1" precision="FP32">
					<dim>1</dim>
					<dim>32</dim>
					<dim>1</dim>
					<dim>1</dim>
				</port>
			</input>
			<output>
				<port id="2" precision="FP32" names="/model.2/cv1/conv/Conv_output_0">
					<dim>1</dim>
					<dim>32</dim>
					<dim>104</dim>
					<dim>104</dim>
				</port>
			</output>
		</layer>
		<layer id="16" name="/model.2/cv1/act/Mul" type="Swish" version="opset4">
			<input>
				<port id="0" precision="FP32">
					<dim>1</dim>
					<dim>32</dim>
					<dim>104</dim>
					<dim>104</dim>
				</port>
			</input>
			<output>
				<port id="1" precision="FP32" names="/model.2/cv1/act/Mul_output_0">
					<dim>1</dim>
					<dim>32</dim>
					<dim>104</dim>
					<dim>104</dim>
				</port>
			</output>
		</layer>
		<layer id="17" name="Constant_229" type="Const" version="opset1">
			<data element_type="i64" shape="" offset="52968" size="8" />
			<output>
				<port id="0" precision="I64" />
			</output>
		</layer>
		<layer id="18" name="Constant_802" type="Const" version="opset1">
			<data element_type="i64" shape="2" offset="52976" size="16" />
			<output>
				<port id="0" precision="I64" names="onnx::Split_197">
					<dim>2</dim>
				</port>
			</output>
		</layer>
		<layer id="19" name="/model.2/Split" type="VariadicSplit" version="opset1">
			<input>
				<port id="0" precision="FP32">
					<dim>1</dim>
					<dim>32</dim>
					<dim>104</dim>
					<dim>104</dim>
				</port>
				<port id="1" precision="I64" />
				<port id="2" precision="I64">
					<dim>2</dim>
				</port>
			</input>
			<output>
				<port id="3" precision="FP32" names="/model.2/Split_output_0">
					<dim>1</dim>
					<dim>16</dim>
					<dim>104</dim>
					<dim>104</dim>
				</port>
				<port id="4" precision="FP32" names="/model.2/Split_output_1">
					<dim>1</dim>
					<dim>16</dim>
					<dim>104</dim>
					<dim>104</dim>
				</port>
			</output>
		</layer>
		<layer id="20" name="model.2.m.0.cv1.conv.weight" type="Const" version="opset1">
			<data element_type="f32" shape="16, 16, 3, 3" offset="52992" size="9216" />
			<output>
				<port id="0" precision="FP32" names="model.2.m.0.cv1.conv.weight">
					<dim>16</dim>
					<dim>16</dim>
					<dim>3</dim>
					<dim>3</dim>
				</port>
			</output>
		</layer>
		<layer id="21" name="/model.2/m.0/cv1/conv/Conv/WithoutBiases" type="Convolution" version="opset1">
			<data strides="1, 1" dilations="1, 1" pads_begin="1, 1" pads_end="1, 1" auto_pad="explicit" />
			<input>
				<port id="0" precision="FP32">
					<dim>1</dim>
					<dim>16</dim>
					<dim>104</dim>
					<dim>104</dim>
				</port>
				<port id="1" precision="FP32">
					<dim>16</dim>
					<dim>16</dim>
					<dim>3</dim>
					<dim>3</dim>
				</port>
			</input>
			<output>
				<port id="2" precision="FP32">
					<dim>1</dim>
					<dim>16</dim>
					<dim>104</dim>
					<dim>104</dim>
				</port>
			</output>
		</layer>
		<layer id="22" name="Reshape_242" type="Const" version="opset1">
			<data element_type="f32" shape="1, 16, 1, 1" offset="62208" size="64" />
			<output>
				<port id="0" precision="FP32">
					<dim>1</dim>
					<dim>16</dim>
					<dim>1</dim>
					<dim>1</dim>
				</port>
			</output>
		</layer>
		<layer id="23" name="/model.2/m.0/cv1/conv/Conv" type="Add" version="opset1">
			<data auto_broadcast="numpy" />
			<input>
				<port id="0" precision="FP32">
					<dim>1</dim>
					<dim>16</dim>
					<dim>104</dim>
					<dim>104</dim>
				</port>
				<port id="1" precision="FP32">
					<dim>1</dim>
					<dim>16</dim>
					<dim>1</dim>
					<dim>1</dim>
				</port>
			</input>
			<output>
				<port id="2" precision="FP32" names="/model.2/m.0/cv1/conv/Conv_output_0">
					<dim>1</dim>
					<dim>16</dim>
					<dim>104</dim>
					<dim>104</dim>
				</port>
			</output>
		</layer>
		<layer id="24" name="/model.2/m.0/cv1/act/Mul" type="Swish" version="opset4">
			<input>
				<port id="0" precision="FP32">
					<dim>1</dim>
					<dim>16</dim>
					<dim>104</dim>
					<dim>104</dim>
				</port>
			</input>
			<output>
				<port id="1" precision="FP32" names="/model.2/m.0/cv1/act/Mul_output_0">
					<dim>1</dim>
					<dim>16</dim>
					<dim>104</dim>
					<dim>104</dim>
				</port>
			</output>
		</layer>
		<layer id="25" name="/model.2/m.0/cv2/SRU/gn/Constant" type="Const" version="opset1">
			<data element_type="i64" shape="3" offset="62272" size="24" />
			<output>
				<port id="0" precision="I64" names="/model.2/m.0/cv2/SRU/gn/Constant_output_0">
					<dim>3</dim>
				</port>
			</output>
		</layer>
		<layer id="26" name="/model.2/m.0/cv2/SRU/gn/Reshape" type="Reshape" version="opset1">
			<data special_zero="true" />
			<input>
				<port id="0" precision="FP32">
					<dim>1</dim>
					<dim>16</dim>
					<dim>104</dim>
					<dim>104</dim>
				</port>
				<port id="1" precision="I64">
					<dim>3</dim>
				</port>
			</input>
			<output>
				<port id="2" precision="FP32" names="/model.2/m.0/cv2/SRU/gn/Reshape_output_0">
					<dim>1</dim>
					<dim>16</dim>
					<dim>10816</dim>
				</port>
			</output>
		</layer>
		<layer id="27" name="Constant_249" type="Const" version="opset1">
			<data element_type="i64" shape="3" offset="62296" size="24" />
			<output>
				<port id="0" precision="I64">
					<dim>3</dim>
				</port>
			</output>
		</layer>
		<layer id="28" name="/model.2/m.0/cv2/SRU/gn/ReduceMean" type="ReduceMean" version="opset1">
			<data keep_dims="true" />
			<input>
				<port id="0" precision="FP32">
					<dim>1</dim>
					<dim>16</dim>
					<dim>10816</dim>
				</port>
				<port id="1" precision="I64">
					<dim>3</dim>
				</port>
			</input>
			<output>
				<port id="2" precision="FP32" names="/model.2/m.0/cv2/SRU/gn/ReduceMean_output_0">
					<dim>1</dim>
					<dim>1</dim>
					<dim>1</dim>
				</port>
			</output>
		</layer>
		<layer id="29" name="/model.2/m.0/cv2/SRU/gn/Sub_2" type="Subtract" version="opset1">
			<data auto_broadcast="numpy" />
			<input>
				<port id="0" precision="FP32">
					<dim>1</dim>
					<dim>16</dim>
					<dim>10816</dim>
				</port>
				<port id="1" precision="FP32">
					<dim>1</dim>
					<dim>1</dim>
					<dim>1</dim>
				</port>
			</input>
			<output>
				<port id="2" precision="FP32" names="/model.2/m.0/cv2/SRU/gn/Sub_2_output_0">
					<dim>1</dim>
					<dim>16</dim>
					<dim>10816</dim>
				</port>
			</output>
		</layer>
		<layer id="30" name="Constant_252" type="Const" version="opset1">
			<data element_type="i64" shape="3" offset="62296" size="24" />
			<output>
				<port id="0" precision="I64">
					<dim>3</dim>
				</port>
			</output>
		</layer>
		<layer id="31" name="/model.2/m.0/cv2/SRU/gn/ReduceMean_1" type="ReduceMean" version="opset1">
			<data keep_dims="true" />
			<input>
				<port id="0" precision="FP32">
					<dim>1</dim>
					<dim>16</dim>
					<dim>10816</dim>
				</port>
				<port id="1" precision="I64">
					<dim>3</dim>
				</port>
			</input>
			<output>
				<port id="2" precision="FP32" names="/model.2/m.0/cv2/SRU/gn/ReduceMean_1_output_0">
					<dim>1</dim>
					<dim>1</dim>
					<dim>1</dim>
				</port>
			</output>
		</layer>
		<layer id="32" name="/model.2/m.0/cv2/SRU/gn/Sub" type="Subtract" version="opset1">
			<data auto_broadcast="numpy" />
			<input>
				<port id="0" precision="FP32">
					<dim>1</dim>
					<dim>16</dim>
					<dim>10816</dim>
				</port>
				<port id="1" precision="FP32">
					<dim>1</dim>
					<dim>1</dim>
					<dim>1</dim>
				</port>
			</input>
			<output>
				<port id="2" precision="FP32" names="/model.2/m.0/cv2/SRU/gn/Sub_output_0">
					<dim>1</dim>
					<dim>16</dim>
					<dim>10816</dim>
				</port>
			</output>
		</layer>
		<layer id="33" name="/model.2/m.0/cv2/SRU/gn/Mul" type="Multiply" version="opset1">
			<data auto_broadcast="numpy" />
			<input>
				<port id="0" precision="FP32">
					<dim>1</dim>
					<dim>16</dim>
					<dim>10816</dim>
				</port>
				<port id="1" precision="FP32">
					<dim>1</dim>
					<dim>16</dim>
					<dim>10816</dim>
				</port>
			</input>
			<output>
				<port id="2" precision="FP32" names="/model.2/m.0/cv2/SRU/gn/Mul_output_0">
					<dim>1</dim>
					<dim>16</dim>
					<dim>10816</dim>
				</port>
			</output>
		</layer>
		<layer id="34" name="Constant_262" type="Const" version="opset1">
			<data element_type="i64" shape="3" offset="62296" size="24" />
			<output>
				<port id="0" precision="I64">
					<dim>3</dim>
				</port>
			</output>
		</layer>
		<layer id="35" name="/model.2/m.0/cv2/SRU/gn/ReduceMean_2" type="ReduceMean" version="opset1">
			<data keep_dims="true" />
			<input>
				<port id="0" precision="FP32">
					<dim>1</dim>
					<dim>16</dim>
					<dim>10816</dim>
				</port>
				<port id="1" precision="I64">
					<dim>3</dim>
				</port>
			</input>
			<output>
				<port id="2" precision="FP32" names="/model.2/m.0/cv2/SRU/gn/ReduceMean_2_output_0">
					<dim>1</dim>
					<dim>1</dim>
					<dim>1</dim>
				</port>
			</output>
		</layer>
		<layer id="36" name="/model.2/m.0/cv2/SRU/gn/Shape" type="ShapeOf" version="opset3">
			<data output_type="i64" />
			<input>
				<port id="0" precision="FP32">
					<dim>1</dim>
					<dim>16</dim>
					<dim>10816</dim>
				</port>
			</input>
			<output>
				<port id="1" precision="I64" names="/model.2/m.0/cv2/SRU/gn/Shape_output_0">
					<dim>3</dim>
				</port>
			</output>
		</layer>
		<layer id="37" name="/model.2/m.0/cv2/SRU/gn/Constant_3" type="Const" version="opset1">
			<data element_type="i64" shape="1" offset="62320" size="8" />
			<output>
				<port id="0" precision="I64" names="/model.2/m.0/cv2/SRU/gn/Constant_3_output_0">
					<dim>1</dim>
				</port>
			</output>
		</layer>
		<layer id="38" name="Constant_256" type="Const" version="opset1">
			<data element_type="i64" shape="" offset="62328" size="8" />
			<output>
				<port id="0" precision="I64" />
			</output>
		</layer>
		<layer id="39" name="/model.2/m.0/cv2/SRU/gn/Gather" type="Gather" version="opset8">
			<data batch_dims="0" />
			<input>
				<port id="0" precision="I64">
					<dim>3</dim>
				</port>
				<port id="1" precision="I64">
					<dim>1</dim>
				</port>
				<port id="2" precision="I64" />
			</input>
			<output>
				<port id="3" precision="I64" names="/model.2/m.0/cv2/SRU/gn/Gather_output_0">
					<dim>1</dim>
				</port>
			</output>
		</layer>
		<layer id="40" name="Constant_258" type="Const" version="opset1">
			<data element_type="i64" shape="1" offset="62328" size="8" />
			<output>
				<port id="0" precision="I64">
					<dim>1</dim>
				</port>
			</output>
		</layer>
		<layer id="41" name="/model.2/m.0/cv2/SRU/gn/ReduceProd" type="ReduceProd" version="opset1">
			<data keep_dims="false" />
			<input>
				<port id="0" precision="I64">
					<dim>1</dim>
				</port>
				<port id="1" precision="I64">
					<dim>1</dim>
				</port>
			</input>
			<output>
				<port id="2" precision="I64" names="/model.2/m.0/cv2/SRU/gn/ReduceProd_output_0" />
			</output>
		</layer>
		<layer id="42" name="/model.2/m.0/cv2/SRU/gn/Cast" type="Convert" version="opset1">
			<data destination_type="f32" />
			<input>
				<port id="0" precision="I64" />
			</input>
			<output>
				<port id="1" precision="FP32" names="/model.2/m.0/cv2/SRU/gn/Cast_output_0" />
			</output>
		</layer>
		<layer id="43" name="/model.2/m.0/cv2/SRU/gn/Mul_1" type="Multiply" version="opset1">
			<data auto_broadcast="numpy" />
			<input>
				<port id="0" precision="FP32">
					<dim>1</dim>
					<dim>1</dim>
					<dim>1</dim>
				</port>
				<port id="1" precision="FP32" />
			</input>
			<output>
				<port id="2" precision="FP32" names="/model.2/m.0/cv2/SRU/gn/Mul_1_output_0">
					<dim>1</dim>
					<dim>1</dim>
					<dim>1</dim>
				</port>
			</output>
		</layer>
		<layer id="44" name="Constant_9336" type="Const" version="opset1">
			<data element_type="f32" shape="" offset="62336" size="4" />
			<output>
				<port id="0" precision="FP32" />
			</output>
		</layer>
		<layer id="45" name="/model.2/m.0/cv2/SRU/gn/Sub_1" type="Add" version="opset1">
			<data auto_broadcast="numpy" />
			<input>
				<port id="0" precision="FP32" />
				<port id="1" precision="FP32" />
			</input>
			<output>
				<port id="2" precision="FP32" names="/model.2/m.0/cv2/SRU/gn/Sub_1_output_0" />
			</output>
		</layer>
		<layer id="46" name="/model.2/m.0/cv2/SRU/gn/Div" type="Divide" version="opset1">
			<data auto_broadcast="numpy" m_pythondiv="true" />
			<input>
				<port id="0" precision="FP32">
					<dim>1</dim>
					<dim>1</dim>
					<dim>1</dim>
				</port>
				<port id="1" precision="FP32" />
			</input>
			<output>
				<port id="2" precision="FP32" names="/model.2/m.0/cv2/SRU/gn/Div_output_0">
					<dim>1</dim>
					<dim>1</dim>
					<dim>1</dim>
				</port>
			</output>
		</layer>
		<layer id="47" name="/model.2/m.0/cv2/SRU/gn/Sqrt" type="Sqrt" version="opset1">
			<input>
				<port id="0" precision="FP32">
					<dim>1</dim>
					<dim>1</dim>
					<dim>1</dim>
				</port>
			</input>
			<output>
				<port id="1" precision="FP32" names="/model.2/m.0/cv2/SRU/gn/Sqrt_output_0">
					<dim>1</dim>
					<dim>1</dim>
					<dim>1</dim>
				</port>
			</output>
		</layer>
		<layer id="48" name="Constant_9462" type="Const" version="opset1">
			<data element_type="f32" shape="1, 1, 1" offset="62340" size="4" />
			<output>
				<port id="0" precision="FP32">
					<dim>1</dim>
					<dim>1</dim>
					<dim>1</dim>
				</port>
			</output>
		</layer>
		<layer id="49" name="/model.2/m.0/cv2/SRU/gn/Add" type="Add" version="opset1">
			<data auto_broadcast="numpy" />
			<input>
				<port id="0" precision="FP32">
					<dim>1</dim>
					<dim>1</dim>
					<dim>1</dim>
				</port>
				<port id="1" precision="FP32">
					<dim>1</dim>
					<dim>1</dim>
					<dim>1</dim>
				</port>
			</input>
			<output>
				<port id="2" precision="FP32" names="/model.2/m.0/cv2/SRU/gn/Add_output_0">
					<dim>1</dim>
					<dim>1</dim>
					<dim>1</dim>
				</port>
			</output>
		</layer>
		<layer id="50" name="/model.2/m.0/cv2/SRU/gn/Div_1" type="Divide" version="opset1">
			<data auto_broadcast="numpy" m_pythondiv="true" />
			<input>
				<port id="0" precision="FP32">
					<dim>1</dim>
					<dim>16</dim>
					<dim>10816</dim>
				</port>
				<port id="1" precision="FP32">
					<dim>1</dim>
					<dim>1</dim>
					<dim>1</dim>
				</port>
			</input>
			<output>
				<port id="2" precision="FP32" names="/model.2/m.0/cv2/SRU/gn/Div_1_output_0">
					<dim>1</dim>
					<dim>16</dim>
					<dim>10816</dim>
				</port>
			</output>
		</layer>
		<layer id="51" name="/model.2/m.0/cv2/SRU/gn/Constant_6" type="Const" version="opset1">
			<data element_type="i64" shape="4" offset="62344" size="32" />
			<output>
				<port id="0" precision="I64" names="/model.2/m.0/cv2/SRU/gn/Constant_6_output_0">
					<dim>4</dim>
				</port>
			</output>
		</layer>
		<layer id="52" name="/model.2/m.0/cv2/SRU/gn/Reshape_1" type="Reshape" version="opset1">
			<data special_zero="true" />
			<input>
				<port id="0" precision="FP32">
					<dim>1</dim>
					<dim>16</dim>
					<dim>10816</dim>
				</port>
				<port id="1" precision="I64">
					<dim>4</dim>
				</port>
			</input>
			<output>
				<port id="2" precision="FP32" names="/model.2/m.0/cv2/SRU/gn/Reshape_1_output_0">
					<dim>1</dim>
					<dim>16</dim>
					<dim>104</dim>
					<dim>104</dim>
				</port>
			</output>
		</layer>
		<layer id="53" name="Constant_9463" type="Const" version="opset1">
			<data element_type="f32" shape="1, 16, 1, 1" offset="62376" size="64" />
			<output>
				<port id="0" precision="FP32">
					<dim>1</dim>
					<dim>16</dim>
					<dim>1</dim>
					<dim>1</dim>
				</port>
			</output>
		</layer>
		<layer id="54" name="/model.2/m.0/cv2/SRU/Mul" type="Multiply" version="opset1">
			<data auto_broadcast="numpy" />
			<input>
				<port id="0" precision="FP32">
					<dim>1</dim>
					<dim>16</dim>
					<dim>104</dim>
					<dim>104</dim>
				</port>
				<port id="1" precision="FP32">
					<dim>1</dim>
					<dim>16</dim>
					<dim>1</dim>
					<dim>1</dim>
				</port>
			</input>
			<output>
				<port id="2" precision="FP32" names="/model.2/m.0/cv2/SRU/Mul_output_0">
					<dim>1</dim>
					<dim>16</dim>
					<dim>104</dim>
					<dim>104</dim>
				</port>
			</output>
		</layer>
		<layer id="55" name="/model.2/m.0/cv2/SRU/sigomid/Sigmoid" type="Sigmoid" version="opset1">
			<input>
				<port id="0" precision="FP32">
					<dim>1</dim>
					<dim>16</dim>
					<dim>104</dim>
					<dim>104</dim>
				</port>
			</input>
			<output>
				<port id="1" precision="FP32" names="/model.2/m.0/cv2/SRU/sigomid/Sigmoid_output_0">
					<dim>1</dim>
					<dim>16</dim>
					<dim>104</dim>
					<dim>104</dim>
				</port>
			</output>
		</layer>
		<layer id="56" name="Constant_9464" type="Const" version="opset1">
			<data element_type="f32" shape="1, 1, 1, 1" offset="62440" size="4" />
			<output>
				<port id="0" precision="FP32">
					<dim>1</dim>
					<dim>1</dim>
					<dim>1</dim>
					<dim>1</dim>
				</port>
			</output>
		</layer>
		<layer id="57" name="Func_/model.2/m.0/cv2/SRU/GreaterOrEqualO1" type="Greater" version="opset1">
			<data auto_broadcast="numpy" />
			<input>
				<port id="0" precision="FP32">
					<dim>1</dim>
					<dim>16</dim>
					<dim>104</dim>
					<dim>104</dim>
				</port>
				<port id="1" precision="FP32">
					<dim>1</dim>
					<dim>1</dim>
					<dim>1</dim>
					<dim>1</dim>
				</port>
			</input>
			<output>
				<port id="2" precision="BOOL" names="Func_/model.2/m.0/cv2/SRU/GreaterOrEqualO1">
					<dim>1</dim>
					<dim>16</dim>
					<dim>104</dim>
					<dim>104</dim>
				</port>
			</output>
		</layer>
		<layer id="58" name="Constant_9465" type="Const" version="opset1">
			<data element_type="f32" shape="1, 1, 1, 1" offset="62440" size="4" />
			<output>
				<port id="0" precision="FP32">
					<dim>1</dim>
					<dim>1</dim>
					<dim>1</dim>
					<dim>1</dim>
				</port>
			</output>
		</layer>
		<layer id="59" name="Func_/model.2/m.0/cv2/SRU/GreaterOrEqualO2" type="Equal" version="opset1">
			<data auto_broadcast="numpy" />
			<input>
				<port id="0" precision="FP32">
					<dim>1</dim>
					<dim>16</dim>
					<dim>104</dim>
					<dim>104</dim>
				</port>
				<port id="1" precision="FP32">
					<dim>1</dim>
					<dim>1</dim>
					<dim>1</dim>
					<dim>1</dim>
				</port>
			</input>
			<output>
				<port id="2" precision="BOOL" names="Func_/model.2/m.0/cv2/SRU/GreaterOrEqualO2">
					<dim>1</dim>
					<dim>16</dim>
					<dim>104</dim>
					<dim>104</dim>
				</port>
			</output>
		</layer>
		<layer id="60" name="/model.2/m.0/cv2/SRU/GreaterOrEqual_output_0" type="LogicalOr" version="opset1">
			<data auto_broadcast="numpy" />
			<input>
				<port id="0" precision="BOOL">
					<dim>1</dim>
					<dim>16</dim>
					<dim>104</dim>
					<dim>104</dim>
				</port>
				<port id="1" precision="BOOL">
					<dim>1</dim>
					<dim>16</dim>
					<dim>104</dim>
					<dim>104</dim>
				</port>
			</input>
			<output>
				<port id="2" precision="BOOL" names="/model.2/m.0/cv2/SRU/GreaterOrEqual_output_0">
					<dim>1</dim>
					<dim>16</dim>
					<dim>104</dim>
					<dim>104</dim>
				</port>
			</output>
		</layer>
		<layer id="61" name="/model.2/m.0/cv2/SRU/Cast" type="Convert" version="opset1">
			<data destination_type="f32" />
			<input>
				<port id="0" precision="BOOL">
					<dim>1</dim>
					<dim>16</dim>
					<dim>104</dim>
					<dim>104</dim>
				</port>
			</input>
			<output>
				<port id="1" precision="FP32" names="/model.2/m.0/cv2/SRU/Cast_output_0">
					<dim>1</dim>
					<dim>16</dim>
					<dim>104</dim>
					<dim>104</dim>
				</port>
			</output>
		</layer>
		<layer id="62" name="/model.2/m.0/cv2/SRU/Mul_1" type="Multiply" version="opset1">
			<data auto_broadcast="numpy" />
			<input>
				<port id="0" precision="FP32">
					<dim>1</dim>
					<dim>16</dim>
					<dim>104</dim>
					<dim>104</dim>
				</port>
				<port id="1" precision="FP32">
					<dim>1</dim>
					<dim>16</dim>
					<dim>104</dim>
					<dim>104</dim>
				</port>
			</input>
			<output>
				<port id="2" precision="FP32" names="/model.2/m.0/cv2/SRU/Mul_1_output_0">
					<dim>1</dim>
					<dim>16</dim>
					<dim>104</dim>
					<dim>104</dim>
				</port>
			</output>
		</layer>
		<layer id="63" name="Constant_344" type="Const" version="opset1">
			<data element_type="i64" shape="" offset="52968" size="8" />
			<output>
				<port id="0" precision="I64" />
			</output>
		</layer>
		<layer id="64" name="/model.2/m.0/cv2/SRU/Constant_20" type="Const" version="opset1">
			<data element_type="i64" shape="2" offset="62444" size="16" />
			<output>
				<port id="0" precision="I64" names="/model.2/m.0/cv2/SRU/Constant_20_output_0">
					<dim>2</dim>
				</port>
			</output>
		</layer>
		<layer id="65" name="/model.2/m.0/cv2/SRU/Split_1" type="VariadicSplit" version="opset1">
			<input>
				<port id="0" precision="FP32">
					<dim>1</dim>
					<dim>16</dim>
					<dim>104</dim>
					<dim>104</dim>
				</port>
				<port id="1" precision="I64" />
				<port id="2" precision="I64">
					<dim>2</dim>
				</port>
			</input>
			<output>
				<port id="3" precision="FP32" names="/model.2/m.0/cv2/SRU/Split_1_output_0">
					<dim>1</dim>
					<dim>8</dim>
					<dim>104</dim>
					<dim>104</dim>
				</port>
				<port id="4" precision="FP32" names="/model.2/m.0/cv2/SRU/Split_1_output_1">
					<dim>1</dim>
					<dim>8</dim>
					<dim>104</dim>
					<dim>104</dim>
				</port>
			</output>
		</layer>
		<layer id="66" name="Constant_9466" type="Const" version="opset1">
			<data element_type="f32" shape="1, 1, 1, 1" offset="62440" size="4" />
			<output>
				<port id="0" precision="FP32">
					<dim>1</dim>
					<dim>1</dim>
					<dim>1</dim>
					<dim>1</dim>
				</port>
			</output>
		</layer>
		<layer id="67" name="/model.2/m.0/cv2/SRU/Less" type="Less" version="opset1">
			<data auto_broadcast="numpy" />
			<input>
				<port id="0" precision="FP32">
					<dim>1</dim>
					<dim>16</dim>
					<dim>104</dim>
					<dim>104</dim>
				</port>
				<port id="1" precision="FP32">
					<dim>1</dim>
					<dim>1</dim>
					<dim>1</dim>
					<dim>1</dim>
				</port>
			</input>
			<output>
				<port id="2" precision="BOOL" names="/model.2/m.0/cv2/SRU/Less_output_0">
					<dim>1</dim>
					<dim>16</dim>
					<dim>104</dim>
					<dim>104</dim>
				</port>
			</output>
		</layer>
		<layer id="68" name="/model.2/m.0/cv2/SRU/Cast_1" type="Convert" version="opset1">
			<data destination_type="f32" />
			<input>
				<port id="0" precision="BOOL">
					<dim>1</dim>
					<dim>16</dim>
					<dim>104</dim>
					<dim>104</dim>
				</port>
			</input>
			<output>
				<port id="1" precision="FP32" names="/model.2/m.0/cv2/SRU/Cast_1_output_0">
					<dim>1</dim>
					<dim>16</dim>
					<dim>104</dim>
					<dim>104</dim>
				</port>
			</output>
		</layer>
		<layer id="69" name="/model.2/m.0/cv2/SRU/Mul_2" type="Multiply" version="opset1">
			<data auto_broadcast="numpy" />
			<input>
				<port id="0" precision="FP32">
					<dim>1</dim>
					<dim>16</dim>
					<dim>104</dim>
					<dim>104</dim>
				</port>
				<port id="1" precision="FP32">
					<dim>1</dim>
					<dim>16</dim>
					<dim>104</dim>
					<dim>104</dim>
				</port>
			</input>
			<output>
				<port id="2" precision="FP32" names="/model.2/m.0/cv2/SRU/Mul_2_output_0">
					<dim>1</dim>
					<dim>16</dim>
					<dim>104</dim>
					<dim>104</dim>
				</port>
			</output>
		</layer>
		<layer id="70" name="Constant_347" type="Const" version="opset1">
			<data element_type="i64" shape="" offset="52968" size="8" />
			<output>
				<port id="0" precision="I64" />
			</output>
		</layer>
		<layer id="71" name="/model.2/m.0/cv2/SRU/Constant_21" type="Const" version="opset1">
			<data element_type="i64" shape="2" offset="62444" size="16" />
			<output>
				<port id="0" precision="I64" names="/model.2/m.0/cv2/SRU/Constant_21_output_0">
					<dim>2</dim>
				</port>
			</output>
		</layer>
		<layer id="72" name="/model.2/m.0/cv2/SRU/Split_2" type="VariadicSplit" version="opset1">
			<input>
				<port id="0" precision="FP32">
					<dim>1</dim>
					<dim>16</dim>
					<dim>104</dim>
					<dim>104</dim>
				</port>
				<port id="1" precision="I64" />
				<port id="2" precision="I64">
					<dim>2</dim>
				</port>
			</input>
			<output>
				<port id="3" precision="FP32" names="/model.2/m.0/cv2/SRU/Split_2_output_0">
					<dim>1</dim>
					<dim>8</dim>
					<dim>104</dim>
					<dim>104</dim>
				</port>
				<port id="4" precision="FP32" names="/model.2/m.0/cv2/SRU/Split_2_output_1">
					<dim>1</dim>
					<dim>8</dim>
					<dim>104</dim>
					<dim>104</dim>
				</port>
			</output>
		</layer>
		<layer id="73" name="/model.2/m.0/cv2/SRU/Add_16" type="Add" version="opset1">
			<data auto_broadcast="numpy" />
			<input>
				<port id="0" precision="FP32">
					<dim>1</dim>
					<dim>8</dim>
					<dim>104</dim>
					<dim>104</dim>
				</port>
				<port id="1" precision="FP32">
					<dim>1</dim>
					<dim>8</dim>
					<dim>104</dim>
					<dim>104</dim>
				</port>
			</input>
			<output>
				<port id="2" precision="FP32" names="/model.2/m.0/cv2/SRU/Add_16_output_0">
					<dim>1</dim>
					<dim>8</dim>
					<dim>104</dim>
					<dim>104</dim>
				</port>
			</output>
		</layer>
		<layer id="74" name="/model.2/m.0/cv2/SRU/Add_17" type="Add" version="opset1">
			<data auto_broadcast="numpy" />
			<input>
				<port id="0" precision="FP32">
					<dim>1</dim>
					<dim>8</dim>
					<dim>104</dim>
					<dim>104</dim>
				</port>
				<port id="1" precision="FP32">
					<dim>1</dim>
					<dim>8</dim>
					<dim>104</dim>
					<dim>104</dim>
				</port>
			</input>
			<output>
				<port id="2" precision="FP32" names="/model.2/m.0/cv2/SRU/Add_17_output_0">
					<dim>1</dim>
					<dim>8</dim>
					<dim>104</dim>
					<dim>104</dim>
				</port>
			</output>
		</layer>
		<layer id="75" name="/model.2/m.0/cv2/SRU/Concat" type="Concat" version="opset1">
			<data axis="1" />
			<input>
				<port id="0" precision="FP32">
					<dim>1</dim>
					<dim>8</dim>
					<dim>104</dim>
					<dim>104</dim>
				</port>
				<port id="1" precision="FP32">
					<dim>1</dim>
					<dim>8</dim>
					<dim>104</dim>
					<dim>104</dim>
				</port>
			</input>
			<output>
				<port id="2" precision="FP32" names="/model.2/m.0/cv2/SRU/Concat_output_0">
					<dim>1</dim>
					<dim>16</dim>
					<dim>104</dim>
					<dim>104</dim>
				</port>
			</output>
		</layer>
		<layer id="76" name="Constant_353" type="Const" version="opset1">
			<data element_type="i64" shape="" offset="52968" size="8" />
			<output>
				<port id="0" precision="I64" />
			</output>
		</layer>
		<layer id="77" name="Constant_903" type="Const" version="opset1">
			<data element_type="i64" shape="2" offset="62444" size="16" />
			<output>
				<port id="0" precision="I64" names="onnx::Split_336">
					<dim>2</dim>
				</port>
			</output>
		</layer>
		<layer id="78" name="/model.2/m.0/cv2/CRU/Split" type="VariadicSplit" version="opset1">
			<input>
				<port id="0" precision="FP32">
					<dim>1</dim>
					<dim>16</dim>
					<dim>104</dim>
					<dim>104</dim>
				</port>
				<port id="1" precision="I64" />
				<port id="2" precision="I64">
					<dim>2</dim>
				</port>
			</input>
			<output>
				<port id="3" precision="FP32" names="/model.2/m.0/cv2/CRU/Split_output_0">
					<dim>1</dim>
					<dim>8</dim>
					<dim>104</dim>
					<dim>104</dim>
				</port>
				<port id="4" precision="FP32" names="/model.2/m.0/cv2/CRU/Split_output_1">
					<dim>1</dim>
					<dim>8</dim>
					<dim>104</dim>
					<dim>104</dim>
				</port>
			</output>
		</layer>
		<layer id="79" name="model.2.m.0.cv2.CRU.squeeze1.weight" type="Const" version="opset1">
			<data element_type="f32" shape="4, 8, 1, 1" offset="62460" size="128" />
			<output>
				<port id="0" precision="FP32" names="model.2.m.0.cv2.CRU.squeeze1.weight">
					<dim>4</dim>
					<dim>8</dim>
					<dim>1</dim>
					<dim>1</dim>
				</port>
			</output>
		</layer>
		<layer id="80" name="/model.2/m.0/cv2/CRU/squeeze1/Conv" type="Convolution" version="opset1">
			<data strides="1, 1" dilations="1, 1" pads_begin="0, 0" pads_end="0, 0" auto_pad="explicit" />
			<input>
				<port id="0" precision="FP32">
					<dim>1</dim>
					<dim>8</dim>
					<dim>104</dim>
					<dim>104</dim>
				</port>
				<port id="1" precision="FP32">
					<dim>4</dim>
					<dim>8</dim>
					<dim>1</dim>
					<dim>1</dim>
				</port>
			</input>
			<output>
				<port id="2" precision="FP32" names="/model.2/m.0/cv2/CRU/squeeze1/Conv_output_0">
					<dim>1</dim>
					<dim>4</dim>
					<dim>104</dim>
					<dim>104</dim>
				</port>
			</output>
		</layer>
		<layer id="81" name="Reshape_366" type="Const" version="opset1">
			<data element_type="f32" shape="2, 8, 2, 3, 3" offset="62588" size="1152" />
			<output>
				<port id="0" precision="FP32">
					<dim>2</dim>
					<dim>8</dim>
					<dim>2</dim>
					<dim>3</dim>
					<dim>3</dim>
				</port>
			</output>
		</layer>
		<layer id="82" name="/model.2/m.0/cv2/CRU/GWC/Conv/WithoutBiases" type="GroupConvolution" version="opset1">
			<data strides="1, 1" pads_begin="1, 1" pads_end="1, 1" dilations="1, 1" auto_pad="explicit" />
			<input>
				<port id="0" precision="FP32">
					<dim>1</dim>
					<dim>4</dim>
					<dim>104</dim>
					<dim>104</dim>
				</port>
				<port id="1" precision="FP32">
					<dim>2</dim>
					<dim>8</dim>
					<dim>2</dim>
					<dim>3</dim>
					<dim>3</dim>
				</port>
			</input>
			<output>
				<port id="2" precision="FP32">
					<dim>1</dim>
					<dim>16</dim>
					<dim>104</dim>
					<dim>104</dim>
				</port>
			</output>
		</layer>
		<layer id="83" name="Reshape_416" type="Const" version="opset1">
			<data element_type="f32" shape="1, 16, 1, 1" offset="63740" size="64" />
			<output>
				<port id="0" precision="FP32">
					<dim>1</dim>
					<dim>16</dim>
					<dim>1</dim>
					<dim>1</dim>
				</port>
			</output>
		</layer>
		<layer id="84" name="/model.2/m.0/cv2/CRU/GWC/Conv" type="Add" version="opset1">
			<data auto_broadcast="numpy" />
			<input>
				<port id="0" precision="FP32">
					<dim>1</dim>
					<dim>16</dim>
					<dim>104</dim>
					<dim>104</dim>
				</port>
				<port id="1" precision="FP32">
					<dim>1</dim>
					<dim>16</dim>
					<dim>1</dim>
					<dim>1</dim>
				</port>
			</input>
			<output>
				<port id="2" precision="FP32" names="/model.2/m.0/cv2/CRU/GWC/Conv_output_0">
					<dim>1</dim>
					<dim>16</dim>
					<dim>104</dim>
					<dim>104</dim>
				</port>
			</output>
		</layer>
		<layer id="85" name="model.2.m.0.cv2.CRU.PWC1.weight" type="Const" version="opset1">
			<data element_type="f32" shape="16, 4, 1, 1" offset="63804" size="256" />
			<output>
				<port id="0" precision="FP32" names="model.2.m.0.cv2.CRU.PWC1.weight">
					<dim>16</dim>
					<dim>4</dim>
					<dim>1</dim>
					<dim>1</dim>
				</port>
			</output>
		</layer>
		<layer id="86" name="/model.2/m.0/cv2/CRU/PWC1/Conv" type="Convolution" version="opset1">
			<data strides="1, 1" dilations="1, 1" pads_begin="0, 0" pads_end="0, 0" auto_pad="explicit" />
			<input>
				<port id="0" precision="FP32">
					<dim>1</dim>
					<dim>4</dim>
					<dim>104</dim>
					<dim>104</dim>
				</port>
				<port id="1" precision="FP32">
					<dim>16</dim>
					<dim>4</dim>
					<dim>1</dim>
					<dim>1</dim>
				</port>
			</input>
			<output>
				<port id="2" precision="FP32" names="/model.2/m.0/cv2/CRU/PWC1/Conv_output_0">
					<dim>1</dim>
					<dim>16</dim>
					<dim>104</dim>
					<dim>104</dim>
				</port>
			</output>
		</layer>
		<layer id="87" name="/model.2/m.0/cv2/CRU/Add" type="Add" version="opset1">
			<data auto_broadcast="numpy" />
			<input>
				<port id="0" precision="FP32">
					<dim>1</dim>
					<dim>16</dim>
					<dim>104</dim>
					<dim>104</dim>
				</port>
				<port id="1" precision="FP32">
					<dim>1</dim>
					<dim>16</dim>
					<dim>104</dim>
					<dim>104</dim>
				</port>
			</input>
			<output>
				<port id="2" precision="FP32" names="/model.2/m.0/cv2/CRU/Add_output_0">
					<dim>1</dim>
					<dim>16</dim>
					<dim>104</dim>
					<dim>104</dim>
				</port>
			</output>
		</layer>
		<layer id="88" name="model.2.m.0.cv2.CRU.squeeze2.weight" type="Const" version="opset1">
			<data element_type="f32" shape="4, 8, 1, 1" offset="64060" size="128" />
			<output>
				<port id="0" precision="FP32" names="model.2.m.0.cv2.CRU.squeeze2.weight">
					<dim>4</dim>
					<dim>8</dim>
					<dim>1</dim>
					<dim>1</dim>
				</port>
			</output>
		</layer>
		<layer id="89" name="/model.2/m.0/cv2/CRU/squeeze2/Conv" type="Convolution" version="opset1">
			<data strides="1, 1" dilations="1, 1" pads_begin="0, 0" pads_end="0, 0" auto_pad="explicit" />
			<input>
				<port id="0" precision="FP32">
					<dim>1</dim>
					<dim>8</dim>
					<dim>104</dim>
					<dim>104</dim>
				</port>
				<port id="1" precision="FP32">
					<dim>4</dim>
					<dim>8</dim>
					<dim>1</dim>
					<dim>1</dim>
				</port>
			</input>
			<output>
				<port id="2" precision="FP32" names="/model.2/m.0/cv2/CRU/squeeze2/Conv_output_0">
					<dim>1</dim>
					<dim>4</dim>
					<dim>104</dim>
					<dim>104</dim>
				</port>
			</output>
		</layer>
		<layer id="90" name="model.2.m.0.cv2.CRU.PWC2.weight" type="Const" version="opset1">
			<data element_type="f32" shape="12, 4, 1, 1" offset="64188" size="192" />
			<output>
				<port id="0" precision="FP32" names="model.2.m.0.cv2.CRU.PWC2.weight">
					<dim>12</dim>
					<dim>4</dim>
					<dim>1</dim>
					<dim>1</dim>
				</port>
			</output>
		</layer>
		<layer id="91" name="/model.2/m.0/cv2/CRU/PWC2/Conv" type="Convolution" version="opset1">
			<data strides="1, 1" dilations="1, 1" pads_begin="0, 0" pads_end="0, 0" auto_pad="explicit" />
			<input>
				<port id="0" precision="FP32">
					<dim>1</dim>
					<dim>4</dim>
					<dim>104</dim>
					<dim>104</dim>
				</port>
				<port id="1" precision="FP32">
					<dim>12</dim>
					<dim>4</dim>
					<dim>1</dim>
					<dim>1</dim>
				</port>
			</input>
			<output>
				<port id="2" precision="FP32" names="/model.2/m.0/cv2/CRU/PWC2/Conv_output_0">
					<dim>1</dim>
					<dim>12</dim>
					<dim>104</dim>
					<dim>104</dim>
				</port>
			</output>
		</layer>
		<layer id="92" name="/model.2/m.0/cv2/CRU/Concat" type="Concat" version="opset1">
			<data axis="1" />
			<input>
				<port id="0" precision="FP32">
					<dim>1</dim>
					<dim>16</dim>
					<dim>104</dim>
					<dim>104</dim>
				</port>
				<port id="1" precision="FP32">
					<dim>1</dim>
					<dim>12</dim>
					<dim>104</dim>
					<dim>104</dim>
				</port>
				<port id="2" precision="FP32">
					<dim>1</dim>
					<dim>4</dim>
					<dim>104</dim>
					<dim>104</dim>
				</port>
			</input>
			<output>
				<port id="3" precision="FP32" names="/model.2/m.0/cv2/CRU/Concat_output_0">
					<dim>1</dim>
					<dim>32</dim>
					<dim>104</dim>
					<dim>104</dim>
				</port>
			</output>
		</layer>
		<layer id="93" name="Range_430" type="Const" version="opset1">
			<data element_type="i64" shape="2" offset="64380" size="16" />
			<output>
				<port id="0" precision="I64">
					<dim>2</dim>
				</port>
			</output>
		</layer>
		<layer id="94" name="/model.2/m.0/cv2/CRU/advavg/GlobalAveragePool" type="ReduceMean" version="opset1">
			<data keep_dims="true" />
			<input>
				<port id="0" precision="FP32">
					<dim>1</dim>
					<dim>32</dim>
					<dim>104</dim>
					<dim>104</dim>
				</port>
				<port id="1" precision="I64">
					<dim>2</dim>
				</port>
			</input>
			<output>
				<port id="2" precision="FP32" names="/model.2/m.0/cv2/CRU/advavg/GlobalAveragePool_output_0">
					<dim>1</dim>
					<dim>32</dim>
					<dim>1</dim>
					<dim>1</dim>
				</port>
			</output>
		</layer>
		<layer id="95" name="/model.2/m.0/cv2/CRU/Softmax" type="SoftMax" version="opset8">
			<data axis="1" />
			<input>
				<port id="0" precision="FP32">
					<dim>1</dim>
					<dim>32</dim>
					<dim>1</dim>
					<dim>1</dim>
				</port>
			</input>
			<output>
				<port id="1" precision="FP32" names="/model.2/m.0/cv2/CRU/Softmax_output_0">
					<dim>1</dim>
					<dim>32</dim>
					<dim>1</dim>
					<dim>1</dim>
				</port>
			</output>
		</layer>
		<layer id="96" name="/model.2/m.0/cv2/CRU/Mul" type="Multiply" version="opset1">
			<data auto_broadcast="numpy" />
			<input>
				<port id="0" precision="FP32">
					<dim>1</dim>
					<dim>32</dim>
					<dim>1</dim>
					<dim>1</dim>
				</port>
				<port id="1" precision="FP32">
					<dim>1</dim>
					<dim>32</dim>
					<dim>104</dim>
					<dim>104</dim>
				</port>
			</input>
			<output>
				<port id="2" precision="FP32" names="/model.2/m.0/cv2/CRU/Mul_output_0">
					<dim>1</dim>
					<dim>32</dim>
					<dim>104</dim>
					<dim>104</dim>
				</port>
			</output>
		</layer>
		<layer id="97" name="Constant_437" type="Const" version="opset1">
			<data element_type="i64" shape="" offset="52968" size="8" />
			<output>
				<port id="0" precision="I64" />
			</output>
		</layer>
		<layer id="98" name="/model.2/m.0/cv2/CRU/Constant" type="Const" version="opset1">
			<data element_type="i64" shape="2" offset="52976" size="16" />
			<output>
				<port id="0" precision="I64" names="/model.2/m.0/cv2/CRU/Constant_output_0">
					<dim>2</dim>
				</port>
			</output>
		</layer>
		<layer id="99" name="/model.2/m.0/cv2/CRU/Split_1" type="VariadicSplit" version="opset1">
			<input>
				<port id="0" precision="FP32">
					<dim>1</dim>
					<dim>32</dim>
					<dim>104</dim>
					<dim>104</dim>
				</port>
				<port id="1" precision="I64" />
				<port id="2" precision="I64">
					<dim>2</dim>
				</port>
			</input>
			<output>
				<port id="3" precision="FP32" names="/model.2/m.0/cv2/CRU/Split_1_output_0">
					<dim>1</dim>
					<dim>16</dim>
					<dim>104</dim>
					<dim>104</dim>
				</port>
				<port id="4" precision="FP32" names="/model.2/m.0/cv2/CRU/Split_1_output_1">
					<dim>1</dim>
					<dim>16</dim>
					<dim>104</dim>
					<dim>104</dim>
				</port>
			</output>
		</layer>
		<layer id="100" name="/model.2/m.0/cv2/CRU/Add_1" type="Add" version="opset1">
			<data auto_broadcast="numpy" />
			<input>
				<port id="0" precision="FP32">
					<dim>1</dim>
					<dim>16</dim>
					<dim>104</dim>
					<dim>104</dim>
				</port>
				<port id="1" precision="FP32">
					<dim>1</dim>
					<dim>16</dim>
					<dim>104</dim>
					<dim>104</dim>
				</port>
			</input>
			<output>
				<port id="2" precision="FP32" names="/model.2/m.0/cv2/CRU/Add_1_output_0">
					<dim>1</dim>
					<dim>16</dim>
					<dim>104</dim>
					<dim>104</dim>
				</port>
			</output>
		</layer>
		<layer id="101" name="/model.2/m.0/Add" type="Add" version="opset1">
			<data auto_broadcast="numpy" />
			<input>
				<port id="0" precision="FP32">
					<dim>1</dim>
					<dim>16</dim>
					<dim>104</dim>
					<dim>104</dim>
				</port>
				<port id="1" precision="FP32">
					<dim>1</dim>
					<dim>16</dim>
					<dim>104</dim>
					<dim>104</dim>
				</port>
			</input>
			<output>
				<port id="2" precision="FP32" names="/model.2/m.0/Add_output_0">
					<dim>1</dim>
					<dim>16</dim>
					<dim>104</dim>
					<dim>104</dim>
				</port>
			</output>
		</layer>
		<layer id="102" name="/model.2/Concat" type="Concat" version="opset1">
			<data axis="1" />
			<input>
				<port id="0" precision="FP32">
					<dim>1</dim>
					<dim>16</dim>
					<dim>104</dim>
					<dim>104</dim>
				</port>
				<port id="1" precision="FP32">
					<dim>1</dim>
					<dim>16</dim>
					<dim>104</dim>
					<dim>104</dim>
				</port>
				<port id="2" precision="FP32">
					<dim>1</dim>
					<dim>16</dim>
					<dim>104</dim>
					<dim>104</dim>
				</port>
			</input>
			<output>
				<port id="3" precision="FP32" names="/model.2/Concat_output_0">
					<dim>1</dim>
					<dim>48</dim>
					<dim>104</dim>
					<dim>104</dim>
				</port>
			</output>
		</layer>
		<layer id="103" name="model.2.cv2.conv.weight" type="Const" version="opset1">
			<data element_type="f32" shape="32, 48, 1, 1" offset="64396" size="6144" />
			<output>
				<port id="0" precision="FP32" names="model.2.cv2.conv.weight">
					<dim>32</dim>
					<dim>48</dim>
					<dim>1</dim>
					<dim>1</dim>
				</port>
			</output>
		</layer>
		<layer id="104" name="/model.2/cv2/conv/Conv/WithoutBiases" type="Convolution" version="opset1">
			<data strides="1, 1" dilations="1, 1" pads_begin="0, 0" pads_end="0, 0" auto_pad="explicit" />
			<input>
				<port id="0" precision="FP32">
					<dim>1</dim>
					<dim>48</dim>
					<dim>104</dim>
					<dim>104</dim>
				</port>
				<port id="1" precision="FP32">
					<dim>32</dim>
					<dim>48</dim>
					<dim>1</dim>
					<dim>1</dim>
				</port>
			</input>
			<output>
				<port id="2" precision="FP32">
					<dim>1</dim>
					<dim>32</dim>
					<dim>104</dim>
					<dim>104</dim>
				</port>
			</output>
		</layer>
		<layer id="105" name="Reshape_453" type="Const" version="opset1">
			<data element_type="f32" shape="1, 32, 1, 1" offset="70540" size="128" />
			<output>
				<port id="0" precision="FP32">
					<dim>1</dim>
					<dim>32</dim>
					<dim>1</dim>
					<dim>1</dim>
				</port>
			</output>
		</layer>
		<layer id="106" name="/model.2/cv2/conv/Conv" type="Add" version="opset1">
			<data auto_broadcast="numpy" />
			<input>
				<port id="0" precision="FP32">
					<dim>1</dim>
					<dim>32</dim>
					<dim>104</dim>
					<dim>104</dim>
				</port>
				<port id="1" precision="FP32">
					<dim>1</dim>
					<dim>32</dim>
					<dim>1</dim>
					<dim>1</dim>
				</port>
			</input>
			<output>
				<port id="2" precision="FP32" names="/model.2/cv2/conv/Conv_output_0">
					<dim>1</dim>
					<dim>32</dim>
					<dim>104</dim>
					<dim>104</dim>
				</port>
			</output>
		</layer>
		<layer id="107" name="/model.2/cv2/act/Mul" type="Swish" version="opset4">
			<input>
				<port id="0" precision="FP32">
					<dim>1</dim>
					<dim>32</dim>
					<dim>104</dim>
					<dim>104</dim>
				</port>
			</input>
			<output>
				<port id="1" precision="FP32" names="/model.2/cv2/act/Mul_output_0">
					<dim>1</dim>
					<dim>32</dim>
					<dim>104</dim>
					<dim>104</dim>
				</port>
			</output>
		</layer>
		<layer id="108" name="model.3.conv.weight" type="Const" version="opset1">
			<data element_type="f32" shape="64, 32, 3, 3" offset="70668" size="73728" />
			<output>
				<port id="0" precision="FP32" names="model.3.conv.weight">
					<dim>64</dim>
					<dim>32</dim>
					<dim>3</dim>
					<dim>3</dim>
				</port>
			</output>
		</layer>
		<layer id="109" name="/model.3/conv/Conv/WithoutBiases" type="Convolution" version="opset1">
			<data strides="2, 2" dilations="1, 1" pads_begin="1, 1" pads_end="1, 1" auto_pad="explicit" />
			<input>
				<port id="0" precision="FP32">
					<dim>1</dim>
					<dim>32</dim>
					<dim>104</dim>
					<dim>104</dim>
				</port>
				<port id="1" precision="FP32">
					<dim>64</dim>
					<dim>32</dim>
					<dim>3</dim>
					<dim>3</dim>
				</port>
			</input>
			<output>
				<port id="2" precision="FP32">
					<dim>1</dim>
					<dim>64</dim>
					<dim>52</dim>
					<dim>52</dim>
				</port>
			</output>
		</layer>
		<layer id="110" name="Reshape_468" type="Const" version="opset1">
			<data element_type="f32" shape="1, 64, 1, 1" offset="144396" size="256" />
			<output>
				<port id="0" precision="FP32">
					<dim>1</dim>
					<dim>64</dim>
					<dim>1</dim>
					<dim>1</dim>
				</port>
			</output>
		</layer>
		<layer id="111" name="/model.3/conv/Conv" type="Add" version="opset1">
			<data auto_broadcast="numpy" />
			<input>
				<port id="0" precision="FP32">
					<dim>1</dim>
					<dim>64</dim>
					<dim>52</dim>
					<dim>52</dim>
				</port>
				<port id="1" precision="FP32">
					<dim>1</dim>
					<dim>64</dim>
					<dim>1</dim>
					<dim>1</dim>
				</port>
			</input>
			<output>
				<port id="2" precision="FP32" names="/model.3/conv/Conv_output_0">
					<dim>1</dim>
					<dim>64</dim>
					<dim>52</dim>
					<dim>52</dim>
				</port>
			</output>
		</layer>
		<layer id="112" name="/model.3/act/Mul" type="Swish" version="opset4">
			<input>
				<port id="0" precision="FP32">
					<dim>1</dim>
					<dim>64</dim>
					<dim>52</dim>
					<dim>52</dim>
				</port>
			</input>
			<output>
				<port id="1" precision="FP32" names="/model.3/act/Mul_output_0">
					<dim>1</dim>
					<dim>64</dim>
					<dim>52</dim>
					<dim>52</dim>
				</port>
			</output>
		</layer>
		<layer id="113" name="model.4.cv1.conv.weight" type="Const" version="opset1">
			<data element_type="f32" shape="64, 64, 1, 1" offset="144652" size="16384" />
			<output>
				<port id="0" precision="FP32" names="model.4.cv1.conv.weight">
					<dim>64</dim>
					<dim>64</dim>
					<dim>1</dim>
					<dim>1</dim>
				</port>
			</output>
		</layer>
		<layer id="114" name="/model.4/cv1/conv/Conv/WithoutBiases" type="Convolution" version="opset1">
			<data strides="1, 1" dilations="1, 1" pads_begin="0, 0" pads_end="0, 0" auto_pad="explicit" />
			<input>
				<port id="0" precision="FP32">
					<dim>1</dim>
					<dim>64</dim>
					<dim>52</dim>
					<dim>52</dim>
				</port>
				<port id="1" precision="FP32">
					<dim>64</dim>
					<dim>64</dim>
					<dim>1</dim>
					<dim>1</dim>
				</port>
			</input>
			<output>
				<port id="2" precision="FP32">
					<dim>1</dim>
					<dim>64</dim>
					<dim>52</dim>
					<dim>52</dim>
				</port>
			</output>
		</layer>
		<layer id="115" name="Reshape_483" type="Const" version="opset1">
			<data element_type="f32" shape="1, 64, 1, 1" offset="161036" size="256" />
			<output>
				<port id="0" precision="FP32">
					<dim>1</dim>
					<dim>64</dim>
					<dim>1</dim>
					<dim>1</dim>
				</port>
			</output>
		</layer>
		<layer id="116" name="/model.4/cv1/conv/Conv" type="Add" version="opset1">
			<data auto_broadcast="numpy" />
			<input>
				<port id="0" precision="FP32">
					<dim>1</dim>
					<dim>64</dim>
					<dim>52</dim>
					<dim>52</dim>
				</port>
				<port id="1" precision="FP32">
					<dim>1</dim>
					<dim>64</dim>
					<dim>1</dim>
					<dim>1</dim>
				</port>
			</input>
			<output>
				<port id="2" precision="FP32" names="/model.4/cv1/conv/Conv_output_0">
					<dim>1</dim>
					<dim>64</dim>
					<dim>52</dim>
					<dim>52</dim>
				</port>
			</output>
		</layer>
		<layer id="117" name="/model.4/cv1/act/Mul" type="Swish" version="opset4">
			<input>
				<port id="0" precision="FP32">
					<dim>1</dim>
					<dim>64</dim>
					<dim>52</dim>
					<dim>52</dim>
				</port>
			</input>
			<output>
				<port id="1" precision="FP32" names="/model.4/cv1/act/Mul_output_0">
					<dim>1</dim>
					<dim>64</dim>
					<dim>52</dim>
					<dim>52</dim>
				</port>
			</output>
		</layer>
		<layer id="118" name="Constant_488" type="Const" version="opset1">
			<data element_type="i64" shape="" offset="52968" size="8" />
			<output>
				<port id="0" precision="I64" />
			</output>
		</layer>
		<layer id="119" name="Constant_929" type="Const" version="opset1">
			<data element_type="i64" shape="2" offset="161292" size="16" />
			<output>
				<port id="0" precision="I64" names="onnx::Split_364">
					<dim>2</dim>
				</port>
			</output>
		</layer>
		<layer id="120" name="/model.4/Split" type="VariadicSplit" version="opset1">
			<input>
				<port id="0" precision="FP32">
					<dim>1</dim>
					<dim>64</dim>
					<dim>52</dim>
					<dim>52</dim>
				</port>
				<port id="1" precision="I64" />
				<port id="2" precision="I64">
					<dim>2</dim>
				</port>
			</input>
			<output>
				<port id="3" precision="FP32" names="/model.4/Split_output_0">
					<dim>1</dim>
					<dim>32</dim>
					<dim>52</dim>
					<dim>52</dim>
				</port>
				<port id="4" precision="FP32" names="/model.4/Split_output_1">
					<dim>1</dim>
					<dim>32</dim>
					<dim>52</dim>
					<dim>52</dim>
				</port>
			</output>
		</layer>
		<layer id="121" name="model.4.m.0.cv1.conv.weight" type="Const" version="opset1">
			<data element_type="f32" shape="32, 32, 3, 3" offset="161308" size="36864" />
			<output>
				<port id="0" precision="FP32" names="model.4.m.0.cv1.conv.weight">
					<dim>32</dim>
					<dim>32</dim>
					<dim>3</dim>
					<dim>3</dim>
				</port>
			</output>
		</layer>
		<layer id="122" name="/model.4/m.0/cv1/conv/Conv/WithoutBiases" type="Convolution" version="opset1">
			<data strides="1, 1" dilations="1, 1" pads_begin="1, 1" pads_end="1, 1" auto_pad="explicit" />
			<input>
				<port id="0" precision="FP32">
					<dim>1</dim>
					<dim>32</dim>
					<dim>52</dim>
					<dim>52</dim>
				</port>
				<port id="1" precision="FP32">
					<dim>32</dim>
					<dim>32</dim>
					<dim>3</dim>
					<dim>3</dim>
				</port>
			</input>
			<output>
				<port id="2" precision="FP32">
					<dim>1</dim>
					<dim>32</dim>
					<dim>52</dim>
					<dim>52</dim>
				</port>
			</output>
		</layer>
		<layer id="123" name="Reshape_501" type="Const" version="opset1">
			<data element_type="f32" shape="1, 32, 1, 1" offset="198172" size="128" />
			<output>
				<port id="0" precision="FP32">
					<dim>1</dim>
					<dim>32</dim>
					<dim>1</dim>
					<dim>1</dim>
				</port>
			</output>
		</layer>
		<layer id="124" name="/model.4/m.0/cv1/conv/Conv" type="Add" version="opset1">
			<data auto_broadcast="numpy" />
			<input>
				<port id="0" precision="FP32">
					<dim>1</dim>
					<dim>32</dim>
					<dim>52</dim>
					<dim>52</dim>
				</port>
				<port id="1" precision="FP32">
					<dim>1</dim>
					<dim>32</dim>
					<dim>1</dim>
					<dim>1</dim>
				</port>
			</input>
			<output>
				<port id="2" precision="FP32" names="/model.4/m.0/cv1/conv/Conv_output_0">
					<dim>1</dim>
					<dim>32</dim>
					<dim>52</dim>
					<dim>52</dim>
				</port>
			</output>
		</layer>
		<layer id="125" name="/model.4/m.0/cv1/act/Mul" type="Swish" version="opset4">
			<input>
				<port id="0" precision="FP32">
					<dim>1</dim>
					<dim>32</dim>
					<dim>52</dim>
					<dim>52</dim>
				</port>
			</input>
			<output>
				<port id="1" precision="FP32" names="/model.4/m.0/cv1/act/Mul_output_0">
					<dim>1</dim>
					<dim>32</dim>
					<dim>52</dim>
					<dim>52</dim>
				</port>
			</output>
		</layer>
		<layer id="126" name="/model.4/m.0/cv2/SRU/gn/Constant" type="Const" version="opset1">
			<data element_type="i64" shape="3" offset="62272" size="24" />
			<output>
				<port id="0" precision="I64" names="/model.4/m.0/cv2/SRU/gn/Constant_output_0">
					<dim>3</dim>
				</port>
			</output>
		</layer>
		<layer id="127" name="/model.4/m.0/cv2/SRU/gn/Reshape" type="Reshape" version="opset1">
			<data special_zero="true" />
			<input>
				<port id="0" precision="FP32">
					<dim>1</dim>
					<dim>32</dim>
					<dim>52</dim>
					<dim>52</dim>
				</port>
				<port id="1" precision="I64">
					<dim>3</dim>
				</port>
			</input>
			<output>
				<port id="2" precision="FP32" names="/model.4/m.0/cv2/SRU/gn/Reshape_output_0">
					<dim>1</dim>
					<dim>16</dim>
					<dim>5408</dim>
				</port>
			</output>
		</layer>
		<layer id="128" name="Constant_508" type="Const" version="opset1">
			<data element_type="i64" shape="3" offset="62296" size="24" />
			<output>
				<port id="0" precision="I64">
					<dim>3</dim>
				</port>
			</output>
		</layer>
		<layer id="129" name="/model.4/m.0/cv2/SRU/gn/ReduceMean" type="ReduceMean" version="opset1">
			<data keep_dims="true" />
			<input>
				<port id="0" precision="FP32">
					<dim>1</dim>
					<dim>16</dim>
					<dim>5408</dim>
				</port>
				<port id="1" precision="I64">
					<dim>3</dim>
				</port>
			</input>
			<output>
				<port id="2" precision="FP32" names="/model.4/m.0/cv2/SRU/gn/ReduceMean_output_0">
					<dim>1</dim>
					<dim>1</dim>
					<dim>1</dim>
				</port>
			</output>
		</layer>
		<layer id="130" name="/model.4/m.0/cv2/SRU/gn/Sub_2" type="Subtract" version="opset1">
			<data auto_broadcast="numpy" />
			<input>
				<port id="0" precision="FP32">
					<dim>1</dim>
					<dim>16</dim>
					<dim>5408</dim>
				</port>
				<port id="1" precision="FP32">
					<dim>1</dim>
					<dim>1</dim>
					<dim>1</dim>
				</port>
			</input>
			<output>
				<port id="2" precision="FP32" names="/model.4/m.0/cv2/SRU/gn/Sub_2_output_0">
					<dim>1</dim>
					<dim>16</dim>
					<dim>5408</dim>
				</port>
			</output>
		</layer>
		<layer id="131" name="Constant_511" type="Const" version="opset1">
			<data element_type="i64" shape="3" offset="62296" size="24" />
			<output>
				<port id="0" precision="I64">
					<dim>3</dim>
				</port>
			</output>
		</layer>
		<layer id="132" name="/model.4/m.0/cv2/SRU/gn/ReduceMean_1" type="ReduceMean" version="opset1">
			<data keep_dims="true" />
			<input>
				<port id="0" precision="FP32">
					<dim>1</dim>
					<dim>16</dim>
					<dim>5408</dim>
				</port>
				<port id="1" precision="I64">
					<dim>3</dim>
				</port>
			</input>
			<output>
				<port id="2" precision="FP32" names="/model.4/m.0/cv2/SRU/gn/ReduceMean_1_output_0">
					<dim>1</dim>
					<dim>1</dim>
					<dim>1</dim>
				</port>
			</output>
		</layer>
		<layer id="133" name="/model.4/m.0/cv2/SRU/gn/Sub" type="Subtract" version="opset1">
			<data auto_broadcast="numpy" />
			<input>
				<port id="0" precision="FP32">
					<dim>1</dim>
					<dim>16</dim>
					<dim>5408</dim>
				</port>
				<port id="1" precision="FP32">
					<dim>1</dim>
					<dim>1</dim>
					<dim>1</dim>
				</port>
			</input>
			<output>
				<port id="2" precision="FP32" names="/model.4/m.0/cv2/SRU/gn/Sub_output_0">
					<dim>1</dim>
					<dim>16</dim>
					<dim>5408</dim>
				</port>
			</output>
		</layer>
		<layer id="134" name="/model.4/m.0/cv2/SRU/gn/Mul" type="Multiply" version="opset1">
			<data auto_broadcast="numpy" />
			<input>
				<port id="0" precision="FP32">
					<dim>1</dim>
					<dim>16</dim>
					<dim>5408</dim>
				</port>
				<port id="1" precision="FP32">
					<dim>1</dim>
					<dim>16</dim>
					<dim>5408</dim>
				</port>
			</input>
			<output>
				<port id="2" precision="FP32" names="/model.4/m.0/cv2/SRU/gn/Mul_output_0">
					<dim>1</dim>
					<dim>16</dim>
					<dim>5408</dim>
				</port>
			</output>
		</layer>
		<layer id="135" name="Constant_521" type="Const" version="opset1">
			<data element_type="i64" shape="3" offset="62296" size="24" />
			<output>
				<port id="0" precision="I64">
					<dim>3</dim>
				</port>
			</output>
		</layer>
		<layer id="136" name="/model.4/m.0/cv2/SRU/gn/ReduceMean_2" type="ReduceMean" version="opset1">
			<data keep_dims="true" />
			<input>
				<port id="0" precision="FP32">
					<dim>1</dim>
					<dim>16</dim>
					<dim>5408</dim>
				</port>
				<port id="1" precision="I64">
					<dim>3</dim>
				</port>
			</input>
			<output>
				<port id="2" precision="FP32" names="/model.4/m.0/cv2/SRU/gn/ReduceMean_2_output_0">
					<dim>1</dim>
					<dim>1</dim>
					<dim>1</dim>
				</port>
			</output>
		</layer>
		<layer id="137" name="/model.4/m.0/cv2/SRU/gn/Shape" type="ShapeOf" version="opset3">
			<data output_type="i64" />
			<input>
				<port id="0" precision="FP32">
					<dim>1</dim>
					<dim>16</dim>
					<dim>5408</dim>
				</port>
			</input>
			<output>
				<port id="1" precision="I64" names="/model.4/m.0/cv2/SRU/gn/Shape_output_0">
					<dim>3</dim>
				</port>
			</output>
		</layer>
		<layer id="138" name="/model.4/m.0/cv2/SRU/gn/Constant_3" type="Const" version="opset1">
			<data element_type="i64" shape="1" offset="62320" size="8" />
			<output>
				<port id="0" precision="I64" names="/model.4/m.0/cv2/SRU/gn/Constant_3_output_0">
					<dim>1</dim>
				</port>
			</output>
		</layer>
		<layer id="139" name="Constant_515" type="Const" version="opset1">
			<data element_type="i64" shape="" offset="62328" size="8" />
			<output>
				<port id="0" precision="I64" />
			</output>
		</layer>
		<layer id="140" name="/model.4/m.0/cv2/SRU/gn/Gather" type="Gather" version="opset8">
			<data batch_dims="0" />
			<input>
				<port id="0" precision="I64">
					<dim>3</dim>
				</port>
				<port id="1" precision="I64">
					<dim>1</dim>
				</port>
				<port id="2" precision="I64" />
			</input>
			<output>
				<port id="3" precision="I64" names="/model.4/m.0/cv2/SRU/gn/Gather_output_0">
					<dim>1</dim>
				</port>
			</output>
		</layer>
		<layer id="141" name="Constant_517" type="Const" version="opset1">
			<data element_type="i64" shape="1" offset="62328" size="8" />
			<output>
				<port id="0" precision="I64">
					<dim>1</dim>
				</port>
			</output>
		</layer>
		<layer id="142" name="/model.4/m.0/cv2/SRU/gn/ReduceProd" type="ReduceProd" version="opset1">
			<data keep_dims="false" />
			<input>
				<port id="0" precision="I64">
					<dim>1</dim>
				</port>
				<port id="1" precision="I64">
					<dim>1</dim>
				</port>
			</input>
			<output>
				<port id="2" precision="I64" names="/model.4/m.0/cv2/SRU/gn/ReduceProd_output_0" />
			</output>
		</layer>
		<layer id="143" name="/model.4/m.0/cv2/SRU/gn/Cast" type="Convert" version="opset1">
			<data destination_type="f32" />
			<input>
				<port id="0" precision="I64" />
			</input>
			<output>
				<port id="1" precision="FP32" names="/model.4/m.0/cv2/SRU/gn/Cast_output_0" />
			</output>
		</layer>
		<layer id="144" name="/model.4/m.0/cv2/SRU/gn/Mul_1" type="Multiply" version="opset1">
			<data auto_broadcast="numpy" />
			<input>
				<port id="0" precision="FP32">
					<dim>1</dim>
					<dim>1</dim>
					<dim>1</dim>
				</port>
				<port id="1" precision="FP32" />
			</input>
			<output>
				<port id="2" precision="FP32" names="/model.4/m.0/cv2/SRU/gn/Mul_1_output_0">
					<dim>1</dim>
					<dim>1</dim>
					<dim>1</dim>
				</port>
			</output>
		</layer>
		<layer id="145" name="Constant_9340" type="Const" version="opset1">
			<data element_type="f32" shape="" offset="62336" size="4" />
			<output>
				<port id="0" precision="FP32" />
			</output>
		</layer>
		<layer id="146" name="/model.4/m.0/cv2/SRU/gn/Sub_1" type="Add" version="opset1">
			<data auto_broadcast="numpy" />
			<input>
				<port id="0" precision="FP32" />
				<port id="1" precision="FP32" />
			</input>
			<output>
				<port id="2" precision="FP32" names="/model.4/m.0/cv2/SRU/gn/Sub_1_output_0" />
			</output>
		</layer>
		<layer id="147" name="/model.4/m.0/cv2/SRU/gn/Div" type="Divide" version="opset1">
			<data auto_broadcast="numpy" m_pythondiv="true" />
			<input>
				<port id="0" precision="FP32">
					<dim>1</dim>
					<dim>1</dim>
					<dim>1</dim>
				</port>
				<port id="1" precision="FP32" />
			</input>
			<output>
				<port id="2" precision="FP32" names="/model.4/m.0/cv2/SRU/gn/Div_output_0">
					<dim>1</dim>
					<dim>1</dim>
					<dim>1</dim>
				</port>
			</output>
		</layer>
		<layer id="148" name="/model.4/m.0/cv2/SRU/gn/Sqrt" type="Sqrt" version="opset1">
			<input>
				<port id="0" precision="FP32">
					<dim>1</dim>
					<dim>1</dim>
					<dim>1</dim>
				</port>
			</input>
			<output>
				<port id="1" precision="FP32" names="/model.4/m.0/cv2/SRU/gn/Sqrt_output_0">
					<dim>1</dim>
					<dim>1</dim>
					<dim>1</dim>
				</port>
			</output>
		</layer>
		<layer id="149" name="Constant_9467" type="Const" version="opset1">
			<data element_type="f32" shape="1, 1, 1" offset="62340" size="4" />
			<output>
				<port id="0" precision="FP32">
					<dim>1</dim>
					<dim>1</dim>
					<dim>1</dim>
				</port>
			</output>
		</layer>
		<layer id="150" name="/model.4/m.0/cv2/SRU/gn/Add" type="Add" version="opset1">
			<data auto_broadcast="numpy" />
			<input>
				<port id="0" precision="FP32">
					<dim>1</dim>
					<dim>1</dim>
					<dim>1</dim>
				</port>
				<port id="1" precision="FP32">
					<dim>1</dim>
					<dim>1</dim>
					<dim>1</dim>
				</port>
			</input>
			<output>
				<port id="2" precision="FP32" names="/model.4/m.0/cv2/SRU/gn/Add_output_0">
					<dim>1</dim>
					<dim>1</dim>
					<dim>1</dim>
				</port>
			</output>
		</layer>
		<layer id="151" name="/model.4/m.0/cv2/SRU/gn/Div_1" type="Divide" version="opset1">
			<data auto_broadcast="numpy" m_pythondiv="true" />
			<input>
				<port id="0" precision="FP32">
					<dim>1</dim>
					<dim>16</dim>
					<dim>5408</dim>
				</port>
				<port id="1" precision="FP32">
					<dim>1</dim>
					<dim>1</dim>
					<dim>1</dim>
				</port>
			</input>
			<output>
				<port id="2" precision="FP32" names="/model.4/m.0/cv2/SRU/gn/Div_1_output_0">
					<dim>1</dim>
					<dim>16</dim>
					<dim>5408</dim>
				</port>
			</output>
		</layer>
		<layer id="152" name="/model.4/m.0/cv2/SRU/gn/Constant_6" type="Const" version="opset1">
			<data element_type="i64" shape="4" offset="198300" size="32" />
			<output>
				<port id="0" precision="I64" names="/model.4/m.0/cv2/SRU/gn/Constant_6_output_0">
					<dim>4</dim>
				</port>
			</output>
		</layer>
		<layer id="153" name="/model.4/m.0/cv2/SRU/gn/Reshape_1" type="Reshape" version="opset1">
			<data special_zero="true" />
			<input>
				<port id="0" precision="FP32">
					<dim>1</dim>
					<dim>16</dim>
					<dim>5408</dim>
				</port>
				<port id="1" precision="I64">
					<dim>4</dim>
				</port>
			</input>
			<output>
				<port id="2" precision="FP32" names="/model.4/m.0/cv2/SRU/gn/Reshape_1_output_0">
					<dim>1</dim>
					<dim>32</dim>
					<dim>52</dim>
					<dim>52</dim>
				</port>
			</output>
		</layer>
		<layer id="154" name="Constant_9468" type="Const" version="opset1">
			<data element_type="f32" shape="1, 32, 1, 1" offset="198332" size="128" />
			<output>
				<port id="0" precision="FP32">
					<dim>1</dim>
					<dim>32</dim>
					<dim>1</dim>
					<dim>1</dim>
				</port>
			</output>
		</layer>
		<layer id="155" name="/model.4/m.0/cv2/SRU/Mul" type="Multiply" version="opset1">
			<data auto_broadcast="numpy" />
			<input>
				<port id="0" precision="FP32">
					<dim>1</dim>
					<dim>32</dim>
					<dim>52</dim>
					<dim>52</dim>
				</port>
				<port id="1" precision="FP32">
					<dim>1</dim>
					<dim>32</dim>
					<dim>1</dim>
					<dim>1</dim>
				</port>
			</input>
			<output>
				<port id="2" precision="FP32" names="/model.4/m.0/cv2/SRU/Mul_output_0">
					<dim>1</dim>
					<dim>32</dim>
					<dim>52</dim>
					<dim>52</dim>
				</port>
			</output>
		</layer>
		<layer id="156" name="/model.4/m.0/cv2/SRU/sigomid/Sigmoid" type="Sigmoid" version="opset1">
			<input>
				<port id="0" precision="FP32">
					<dim>1</dim>
					<dim>32</dim>
					<dim>52</dim>
					<dim>52</dim>
				</port>
			</input>
			<output>
				<port id="1" precision="FP32" names="/model.4/m.0/cv2/SRU/sigomid/Sigmoid_output_0">
					<dim>1</dim>
					<dim>32</dim>
					<dim>52</dim>
					<dim>52</dim>
				</port>
			</output>
		</layer>
		<layer id="157" name="Constant_9469" type="Const" version="opset1">
			<data element_type="f32" shape="1, 1, 1, 1" offset="62440" size="4" />
			<output>
				<port id="0" precision="FP32">
					<dim>1</dim>
					<dim>1</dim>
					<dim>1</dim>
					<dim>1</dim>
				</port>
			</output>
		</layer>
		<layer id="158" name="Func_/model.4/m.0/cv2/SRU/GreaterOrEqualO1" type="Greater" version="opset1">
			<data auto_broadcast="numpy" />
			<input>
				<port id="0" precision="FP32">
					<dim>1</dim>
					<dim>32</dim>
					<dim>52</dim>
					<dim>52</dim>
				</port>
				<port id="1" precision="FP32">
					<dim>1</dim>
					<dim>1</dim>
					<dim>1</dim>
					<dim>1</dim>
				</port>
			</input>
			<output>
				<port id="2" precision="BOOL" names="Func_/model.4/m.0/cv2/SRU/GreaterOrEqualO1">
					<dim>1</dim>
					<dim>32</dim>
					<dim>52</dim>
					<dim>52</dim>
				</port>
			</output>
		</layer>
		<layer id="159" name="Constant_9470" type="Const" version="opset1">
			<data element_type="f32" shape="1, 1, 1, 1" offset="62440" size="4" />
			<output>
				<port id="0" precision="FP32">
					<dim>1</dim>
					<dim>1</dim>
					<dim>1</dim>
					<dim>1</dim>
				</port>
			</output>
		</layer>
		<layer id="160" name="Func_/model.4/m.0/cv2/SRU/GreaterOrEqualO2" type="Equal" version="opset1">
			<data auto_broadcast="numpy" />
			<input>
				<port id="0" precision="FP32">
					<dim>1</dim>
					<dim>32</dim>
					<dim>52</dim>
					<dim>52</dim>
				</port>
				<port id="1" precision="FP32">
					<dim>1</dim>
					<dim>1</dim>
					<dim>1</dim>
					<dim>1</dim>
				</port>
			</input>
			<output>
				<port id="2" precision="BOOL" names="Func_/model.4/m.0/cv2/SRU/GreaterOrEqualO2">
					<dim>1</dim>
					<dim>32</dim>
					<dim>52</dim>
					<dim>52</dim>
				</port>
			</output>
		</layer>
		<layer id="161" name="/model.4/m.0/cv2/SRU/GreaterOrEqual_output_0" type="LogicalOr" version="opset1">
			<data auto_broadcast="numpy" />
			<input>
				<port id="0" precision="BOOL">
					<dim>1</dim>
					<dim>32</dim>
					<dim>52</dim>
					<dim>52</dim>
				</port>
				<port id="1" precision="BOOL">
					<dim>1</dim>
					<dim>32</dim>
					<dim>52</dim>
					<dim>52</dim>
				</port>
			</input>
			<output>
				<port id="2" precision="BOOL" names="/model.4/m.0/cv2/SRU/GreaterOrEqual_output_0">
					<dim>1</dim>
					<dim>32</dim>
					<dim>52</dim>
					<dim>52</dim>
				</port>
			</output>
		</layer>
		<layer id="162" name="/model.4/m.0/cv2/SRU/Cast" type="Convert" version="opset1">
			<data destination_type="f32" />
			<input>
				<port id="0" precision="BOOL">
					<dim>1</dim>
					<dim>32</dim>
					<dim>52</dim>
					<dim>52</dim>
				</port>
			</input>
			<output>
				<port id="1" precision="FP32" names="/model.4/m.0/cv2/SRU/Cast_output_0">
					<dim>1</dim>
					<dim>32</dim>
					<dim>52</dim>
					<dim>52</dim>
				</port>
			</output>
		</layer>
		<layer id="163" name="/model.4/m.0/cv2/SRU/Mul_1" type="Multiply" version="opset1">
			<data auto_broadcast="numpy" />
			<input>
				<port id="0" precision="FP32">
					<dim>1</dim>
					<dim>32</dim>
					<dim>52</dim>
					<dim>52</dim>
				</port>
				<port id="1" precision="FP32">
					<dim>1</dim>
					<dim>32</dim>
					<dim>52</dim>
					<dim>52</dim>
				</port>
			</input>
			<output>
				<port id="2" precision="FP32" names="/model.4/m.0/cv2/SRU/Mul_1_output_0">
					<dim>1</dim>
					<dim>32</dim>
					<dim>52</dim>
					<dim>52</dim>
				</port>
			</output>
		</layer>
		<layer id="164" name="Constant_651" type="Const" version="opset1">
			<data element_type="i64" shape="" offset="52968" size="8" />
			<output>
				<port id="0" precision="I64" />
			</output>
		</layer>
		<layer id="165" name="/model.4/m.0/cv2/SRU/Constant_36" type="Const" version="opset1">
			<data element_type="i64" shape="2" offset="52976" size="16" />
			<output>
				<port id="0" precision="I64" names="/model.4/m.0/cv2/SRU/Constant_36_output_0">
					<dim>2</dim>
				</port>
			</output>
		</layer>
		<layer id="166" name="/model.4/m.0/cv2/SRU/Split_1" type="VariadicSplit" version="opset1">
			<input>
				<port id="0" precision="FP32">
					<dim>1</dim>
					<dim>32</dim>
					<dim>52</dim>
					<dim>52</dim>
				</port>
				<port id="1" precision="I64" />
				<port id="2" precision="I64">
					<dim>2</dim>
				</port>
			</input>
			<output>
				<port id="3" precision="FP32" names="/model.4/m.0/cv2/SRU/Split_1_output_0">
					<dim>1</dim>
					<dim>16</dim>
					<dim>52</dim>
					<dim>52</dim>
				</port>
				<port id="4" precision="FP32" names="/model.4/m.0/cv2/SRU/Split_1_output_1">
					<dim>1</dim>
					<dim>16</dim>
					<dim>52</dim>
					<dim>52</dim>
				</port>
			</output>
		</layer>
		<layer id="167" name="Constant_9471" type="Const" version="opset1">
			<data element_type="f32" shape="1, 1, 1, 1" offset="62440" size="4" />
			<output>
				<port id="0" precision="FP32">
					<dim>1</dim>
					<dim>1</dim>
					<dim>1</dim>
					<dim>1</dim>
				</port>
			</output>
		</layer>
		<layer id="168" name="/model.4/m.0/cv2/SRU/Less" type="Less" version="opset1">
			<data auto_broadcast="numpy" />
			<input>
				<port id="0" precision="FP32">
					<dim>1</dim>
					<dim>32</dim>
					<dim>52</dim>
					<dim>52</dim>
				</port>
				<port id="1" precision="FP32">
					<dim>1</dim>
					<dim>1</dim>
					<dim>1</dim>
					<dim>1</dim>
				</port>
			</input>
			<output>
				<port id="2" precision="BOOL" names="/model.4/m.0/cv2/SRU/Less_output_0">
					<dim>1</dim>
					<dim>32</dim>
					<dim>52</dim>
					<dim>52</dim>
				</port>
			</output>
		</layer>
		<layer id="169" name="/model.4/m.0/cv2/SRU/Cast_1" type="Convert" version="opset1">
			<data destination_type="f32" />
			<input>
				<port id="0" precision="BOOL">
					<dim>1</dim>
					<dim>32</dim>
					<dim>52</dim>
					<dim>52</dim>
				</port>
			</input>
			<output>
				<port id="1" precision="FP32" names="/model.4/m.0/cv2/SRU/Cast_1_output_0">
					<dim>1</dim>
					<dim>32</dim>
					<dim>52</dim>
					<dim>52</dim>
				</port>
			</output>
		</layer>
		<layer id="170" name="/model.4/m.0/cv2/SRU/Mul_2" type="Multiply" version="opset1">
			<data auto_broadcast="numpy" />
			<input>
				<port id="0" precision="FP32">
					<dim>1</dim>
					<dim>32</dim>
					<dim>52</dim>
					<dim>52</dim>
				</port>
				<port id="1" precision="FP32">
					<dim>1</dim>
					<dim>32</dim>
					<dim>52</dim>
					<dim>52</dim>
				</port>
			</input>
			<output>
				<port id="2" precision="FP32" names="/model.4/m.0/cv2/SRU/Mul_2_output_0">
					<dim>1</dim>
					<dim>32</dim>
					<dim>52</dim>
					<dim>52</dim>
				</port>
			</output>
		</layer>
		<layer id="171" name="Constant_654" type="Const" version="opset1">
			<data element_type="i64" shape="" offset="52968" size="8" />
			<output>
				<port id="0" precision="I64" />
			</output>
		</layer>
		<layer id="172" name="/model.4/m.0/cv2/SRU/Constant_37" type="Const" version="opset1">
			<data element_type="i64" shape="2" offset="52976" size="16" />
			<output>
				<port id="0" precision="I64" names="/model.4/m.0/cv2/SRU/Constant_37_output_0">
					<dim>2</dim>
				</port>
			</output>
		</layer>
		<layer id="173" name="/model.4/m.0/cv2/SRU/Split_2" type="VariadicSplit" version="opset1">
			<input>
				<port id="0" precision="FP32">
					<dim>1</dim>
					<dim>32</dim>
					<dim>52</dim>
					<dim>52</dim>
				</port>
				<port id="1" precision="I64" />
				<port id="2" precision="I64">
					<dim>2</dim>
				</port>
			</input>
			<output>
				<port id="3" precision="FP32" names="/model.4/m.0/cv2/SRU/Split_2_output_0">
					<dim>1</dim>
					<dim>16</dim>
					<dim>52</dim>
					<dim>52</dim>
				</port>
				<port id="4" precision="FP32" names="/model.4/m.0/cv2/SRU/Split_2_output_1">
					<dim>1</dim>
					<dim>16</dim>
					<dim>52</dim>
					<dim>52</dim>
				</port>
			</output>
		</layer>
		<layer id="174" name="/model.4/m.0/cv2/SRU/Add_32" type="Add" version="opset1">
			<data auto_broadcast="numpy" />
			<input>
				<port id="0" precision="FP32">
					<dim>1</dim>
					<dim>16</dim>
					<dim>52</dim>
					<dim>52</dim>
				</port>
				<port id="1" precision="FP32">
					<dim>1</dim>
					<dim>16</dim>
					<dim>52</dim>
					<dim>52</dim>
				</port>
			</input>
			<output>
				<port id="2" precision="FP32" names="/model.4/m.0/cv2/SRU/Add_32_output_0">
					<dim>1</dim>
					<dim>16</dim>
					<dim>52</dim>
					<dim>52</dim>
				</port>
			</output>
		</layer>
		<layer id="175" name="/model.4/m.0/cv2/SRU/Add_33" type="Add" version="opset1">
			<data auto_broadcast="numpy" />
			<input>
				<port id="0" precision="FP32">
					<dim>1</dim>
					<dim>16</dim>
					<dim>52</dim>
					<dim>52</dim>
				</port>
				<port id="1" precision="FP32">
					<dim>1</dim>
					<dim>16</dim>
					<dim>52</dim>
					<dim>52</dim>
				</port>
			</input>
			<output>
				<port id="2" precision="FP32" names="/model.4/m.0/cv2/SRU/Add_33_output_0">
					<dim>1</dim>
					<dim>16</dim>
					<dim>52</dim>
					<dim>52</dim>
				</port>
			</output>
		</layer>
		<layer id="176" name="/model.4/m.0/cv2/SRU/Concat" type="Concat" version="opset1">
			<data axis="1" />
			<input>
				<port id="0" precision="FP32">
					<dim>1</dim>
					<dim>16</dim>
					<dim>52</dim>
					<dim>52</dim>
				</port>
				<port id="1" precision="FP32">
					<dim>1</dim>
					<dim>16</dim>
					<dim>52</dim>
					<dim>52</dim>
				</port>
			</input>
			<output>
				<port id="2" precision="FP32" names="/model.4/m.0/cv2/SRU/Concat_output_0">
					<dim>1</dim>
					<dim>32</dim>
					<dim>52</dim>
					<dim>52</dim>
				</port>
			</output>
		</layer>
		<layer id="177" name="Constant_659" type="Const" version="opset1">
			<data element_type="i64" shape="" offset="52968" size="8" />
			<output>
				<port id="0" precision="I64" />
			</output>
		</layer>
		<layer id="178" name="/model.4/m.0/cv2/CRU/Split" type="VariadicSplit" version="opset1">
			<input>
				<port id="0" precision="FP32">
					<dim>1</dim>
					<dim>32</dim>
					<dim>52</dim>
					<dim>52</dim>
				</port>
				<port id="1" precision="I64" />
				<port id="2" precision="I64">
					<dim>2</dim>
				</port>
			</input>
			<output>
				<port id="3" precision="FP32" names="/model.4/m.0/cv2/CRU/Split_output_0">
					<dim>1</dim>
					<dim>16</dim>
					<dim>52</dim>
					<dim>52</dim>
				</port>
				<port id="4" precision="FP32" names="/model.4/m.0/cv2/CRU/Split_output_1">
					<dim>1</dim>
					<dim>16</dim>
					<dim>52</dim>
					<dim>52</dim>
				</port>
			</output>
		</layer>
		<layer id="179" name="model.4.m.0.cv2.CRU.squeeze1.weight" type="Const" version="opset1">
			<data element_type="f32" shape="8, 16, 1, 1" offset="198460" size="512" />
			<output>
				<port id="0" precision="FP32" names="model.4.m.0.cv2.CRU.squeeze1.weight">
					<dim>8</dim>
					<dim>16</dim>
					<dim>1</dim>
					<dim>1</dim>
				</port>
			</output>
		</layer>
		<layer id="180" name="/model.4/m.0/cv2/CRU/squeeze1/Conv" type="Convolution" version="opset1">
			<data strides="1, 1" dilations="1, 1" pads_begin="0, 0" pads_end="0, 0" auto_pad="explicit" />
			<input>
				<port id="0" precision="FP32">
					<dim>1</dim>
					<dim>16</dim>
					<dim>52</dim>
					<dim>52</dim>
				</port>
				<port id="1" precision="FP32">
					<dim>8</dim>
					<dim>16</dim>
					<dim>1</dim>
					<dim>1</dim>
				</port>
			</input>
			<output>
				<port id="2" precision="FP32" names="/model.4/m.0/cv2/CRU/squeeze1/Conv_output_0">
					<dim>1</dim>
					<dim>8</dim>
					<dim>52</dim>
					<dim>52</dim>
				</port>
			</output>
		</layer>
		<layer id="181" name="Reshape_672" type="Const" version="opset1">
			<data element_type="f32" shape="2, 16, 4, 3, 3" offset="198972" size="4608" />
			<output>
				<port id="0" precision="FP32">
					<dim>2</dim>
					<dim>16</dim>
					<dim>4</dim>
					<dim>3</dim>
					<dim>3</dim>
				</port>
			</output>
		</layer>
		<layer id="182" name="/model.4/m.0/cv2/CRU/GWC/Conv/WithoutBiases" type="GroupConvolution" version="opset1">
			<data strides="1, 1" pads_begin="1, 1" pads_end="1, 1" dilations="1, 1" auto_pad="explicit" />
			<input>
				<port id="0" precision="FP32">
					<dim>1</dim>
					<dim>8</dim>
					<dim>52</dim>
					<dim>52</dim>
				</port>
				<port id="1" precision="FP32">
					<dim>2</dim>
					<dim>16</dim>
					<dim>4</dim>
					<dim>3</dim>
					<dim>3</dim>
				</port>
			</input>
			<output>
				<port id="2" precision="FP32">
					<dim>1</dim>
					<dim>32</dim>
					<dim>52</dim>
					<dim>52</dim>
				</port>
			</output>
		</layer>
		<layer id="183" name="Reshape_722" type="Const" version="opset1">
			<data element_type="f32" shape="1, 32, 1, 1" offset="203580" size="128" />
			<output>
				<port id="0" precision="FP32">
					<dim>1</dim>
					<dim>32</dim>
					<dim>1</dim>
					<dim>1</dim>
				</port>
			</output>
		</layer>
		<layer id="184" name="/model.4/m.0/cv2/CRU/GWC/Conv" type="Add" version="opset1">
			<data auto_broadcast="numpy" />
			<input>
				<port id="0" precision="FP32">
					<dim>1</dim>
					<dim>32</dim>
					<dim>52</dim>
					<dim>52</dim>
				</port>
				<port id="1" precision="FP32">
					<dim>1</dim>
					<dim>32</dim>
					<dim>1</dim>
					<dim>1</dim>
				</port>
			</input>
			<output>
				<port id="2" precision="FP32" names="/model.4/m.0/cv2/CRU/GWC/Conv_output_0">
					<dim>1</dim>
					<dim>32</dim>
					<dim>52</dim>
					<dim>52</dim>
				</port>
			</output>
		</layer>
		<layer id="185" name="model.4.m.0.cv2.CRU.PWC1.weight" type="Const" version="opset1">
			<data element_type="f32" shape="32, 8, 1, 1" offset="203708" size="1024" />
			<output>
				<port id="0" precision="FP32" names="model.4.m.0.cv2.CRU.PWC1.weight">
					<dim>32</dim>
					<dim>8</dim>
					<dim>1</dim>
					<dim>1</dim>
				</port>
			</output>
		</layer>
		<layer id="186" name="/model.4/m.0/cv2/CRU/PWC1/Conv" type="Convolution" version="opset1">
			<data strides="1, 1" dilations="1, 1" pads_begin="0, 0" pads_end="0, 0" auto_pad="explicit" />
			<input>
				<port id="0" precision="FP32">
					<dim>1</dim>
					<dim>8</dim>
					<dim>52</dim>
					<dim>52</dim>
				</port>
				<port id="1" precision="FP32">
					<dim>32</dim>
					<dim>8</dim>
					<dim>1</dim>
					<dim>1</dim>
				</port>
			</input>
			<output>
				<port id="2" precision="FP32" names="/model.4/m.0/cv2/CRU/PWC1/Conv_output_0">
					<dim>1</dim>
					<dim>32</dim>
					<dim>52</dim>
					<dim>52</dim>
				</port>
			</output>
		</layer>
		<layer id="187" name="/model.4/m.0/cv2/CRU/Add" type="Add" version="opset1">
			<data auto_broadcast="numpy" />
			<input>
				<port id="0" precision="FP32">
					<dim>1</dim>
					<dim>32</dim>
					<dim>52</dim>
					<dim>52</dim>
				</port>
				<port id="1" precision="FP32">
					<dim>1</dim>
					<dim>32</dim>
					<dim>52</dim>
					<dim>52</dim>
				</port>
			</input>
			<output>
				<port id="2" precision="FP32" names="/model.4/m.0/cv2/CRU/Add_output_0">
					<dim>1</dim>
					<dim>32</dim>
					<dim>52</dim>
					<dim>52</dim>
				</port>
			</output>
		</layer>
		<layer id="188" name="model.4.m.0.cv2.CRU.squeeze2.weight" type="Const" version="opset1">
			<data element_type="f32" shape="8, 16, 1, 1" offset="204732" size="512" />
			<output>
				<port id="0" precision="FP32" names="model.4.m.0.cv2.CRU.squeeze2.weight">
					<dim>8</dim>
					<dim>16</dim>
					<dim>1</dim>
					<dim>1</dim>
				</port>
			</output>
		</layer>
		<layer id="189" name="/model.4/m.0/cv2/CRU/squeeze2/Conv" type="Convolution" version="opset1">
			<data strides="1, 1" dilations="1, 1" pads_begin="0, 0" pads_end="0, 0" auto_pad="explicit" />
			<input>
				<port id="0" precision="FP32">
					<dim>1</dim>
					<dim>16</dim>
					<dim>52</dim>
					<dim>52</dim>
				</port>
				<port id="1" precision="FP32">
					<dim>8</dim>
					<dim>16</dim>
					<dim>1</dim>
					<dim>1</dim>
				</port>
			</input>
			<output>
				<port id="2" precision="FP32" names="/model.4/m.0/cv2/CRU/squeeze2/Conv_output_0">
					<dim>1</dim>
					<dim>8</dim>
					<dim>52</dim>
					<dim>52</dim>
				</port>
			</output>
		</layer>
		<layer id="190" name="model.4.m.0.cv2.CRU.PWC2.weight" type="Const" version="opset1">
			<data element_type="f32" shape="24, 8, 1, 1" offset="205244" size="768" />
			<output>
				<port id="0" precision="FP32" names="model.4.m.0.cv2.CRU.PWC2.weight">
					<dim>24</dim>
					<dim>8</dim>
					<dim>1</dim>
					<dim>1</dim>
				</port>
			</output>
		</layer>
		<layer id="191" name="/model.4/m.0/cv2/CRU/PWC2/Conv" type="Convolution" version="opset1">
			<data strides="1, 1" dilations="1, 1" pads_begin="0, 0" pads_end="0, 0" auto_pad="explicit" />
			<input>
				<port id="0" precision="FP32">
					<dim>1</dim>
					<dim>8</dim>
					<dim>52</dim>
					<dim>52</dim>
				</port>
				<port id="1" precision="FP32">
					<dim>24</dim>
					<dim>8</dim>
					<dim>1</dim>
					<dim>1</dim>
				</port>
			</input>
			<output>
				<port id="2" precision="FP32" names="/model.4/m.0/cv2/CRU/PWC2/Conv_output_0">
					<dim>1</dim>
					<dim>24</dim>
					<dim>52</dim>
					<dim>52</dim>
				</port>
			</output>
		</layer>
		<layer id="192" name="/model.4/m.0/cv2/CRU/Concat" type="Concat" version="opset1">
			<data axis="1" />
			<input>
				<port id="0" precision="FP32">
					<dim>1</dim>
					<dim>32</dim>
					<dim>52</dim>
					<dim>52</dim>
				</port>
				<port id="1" precision="FP32">
					<dim>1</dim>
					<dim>24</dim>
					<dim>52</dim>
					<dim>52</dim>
				</port>
				<port id="2" precision="FP32">
					<dim>1</dim>
					<dim>8</dim>
					<dim>52</dim>
					<dim>52</dim>
				</port>
			</input>
			<output>
				<port id="3" precision="FP32" names="/model.4/m.0/cv2/CRU/Concat_output_0">
					<dim>1</dim>
					<dim>64</dim>
					<dim>52</dim>
					<dim>52</dim>
				</port>
			</output>
		</layer>
		<layer id="193" name="Range_736" type="Const" version="opset1">
			<data element_type="i64" shape="2" offset="64380" size="16" />
			<output>
				<port id="0" precision="I64">
					<dim>2</dim>
				</port>
			</output>
		</layer>
		<layer id="194" name="/model.4/m.0/cv2/CRU/advavg/GlobalAveragePool" type="ReduceMean" version="opset1">
			<data keep_dims="true" />
			<input>
				<port id="0" precision="FP32">
					<dim>1</dim>
					<dim>64</dim>
					<dim>52</dim>
					<dim>52</dim>
				</port>
				<port id="1" precision="I64">
					<dim>2</dim>
				</port>
			</input>
			<output>
				<port id="2" precision="FP32" names="/model.4/m.0/cv2/CRU/advavg/GlobalAveragePool_output_0">
					<dim>1</dim>
					<dim>64</dim>
					<dim>1</dim>
					<dim>1</dim>
				</port>
			</output>
		</layer>
		<layer id="195" name="/model.4/m.0/cv2/CRU/Softmax" type="SoftMax" version="opset8">
			<data axis="1" />
			<input>
				<port id="0" precision="FP32">
					<dim>1</dim>
					<dim>64</dim>
					<dim>1</dim>
					<dim>1</dim>
				</port>
			</input>
			<output>
				<port id="1" precision="FP32" names="/model.4/m.0/cv2/CRU/Softmax_output_0">
					<dim>1</dim>
					<dim>64</dim>
					<dim>1</dim>
					<dim>1</dim>
				</port>
			</output>
		</layer>
		<layer id="196" name="/model.4/m.0/cv2/CRU/Mul" type="Multiply" version="opset1">
			<data auto_broadcast="numpy" />
			<input>
				<port id="0" precision="FP32">
					<dim>1</dim>
					<dim>64</dim>
					<dim>1</dim>
					<dim>1</dim>
				</port>
				<port id="1" precision="FP32">
					<dim>1</dim>
					<dim>64</dim>
					<dim>52</dim>
					<dim>52</dim>
				</port>
			</input>
			<output>
				<port id="2" precision="FP32" names="/model.4/m.0/cv2/CRU/Mul_output_0">
					<dim>1</dim>
					<dim>64</dim>
					<dim>52</dim>
					<dim>52</dim>
				</port>
			</output>
		</layer>
		<layer id="197" name="Constant_743" type="Const" version="opset1">
			<data element_type="i64" shape="" offset="52968" size="8" />
			<output>
				<port id="0" precision="I64" />
			</output>
		</layer>
		<layer id="198" name="/model.4/m.0/cv2/CRU/Constant" type="Const" version="opset1">
			<data element_type="i64" shape="2" offset="161292" size="16" />
			<output>
				<port id="0" precision="I64" names="/model.4/m.0/cv2/CRU/Constant_output_0">
					<dim>2</dim>
				</port>
			</output>
		</layer>
		<layer id="199" name="/model.4/m.0/cv2/CRU/Split_1" type="VariadicSplit" version="opset1">
			<input>
				<port id="0" precision="FP32">
					<dim>1</dim>
					<dim>64</dim>
					<dim>52</dim>
					<dim>52</dim>
				</port>
				<port id="1" precision="I64" />
				<port id="2" precision="I64">
					<dim>2</dim>
				</port>
			</input>
			<output>
				<port id="3" precision="FP32" names="/model.4/m.0/cv2/CRU/Split_1_output_0">
					<dim>1</dim>
					<dim>32</dim>
					<dim>52</dim>
					<dim>52</dim>
				</port>
				<port id="4" precision="FP32" names="/model.4/m.0/cv2/CRU/Split_1_output_1">
					<dim>1</dim>
					<dim>32</dim>
					<dim>52</dim>
					<dim>52</dim>
				</port>
			</output>
		</layer>
		<layer id="200" name="/model.4/m.0/cv2/CRU/Add_1" type="Add" version="opset1">
			<data auto_broadcast="numpy" />
			<input>
				<port id="0" precision="FP32">
					<dim>1</dim>
					<dim>32</dim>
					<dim>52</dim>
					<dim>52</dim>
				</port>
				<port id="1" precision="FP32">
					<dim>1</dim>
					<dim>32</dim>
					<dim>52</dim>
					<dim>52</dim>
				</port>
			</input>
			<output>
				<port id="2" precision="FP32" names="/model.4/m.0/cv2/CRU/Add_1_output_0">
					<dim>1</dim>
					<dim>32</dim>
					<dim>52</dim>
					<dim>52</dim>
				</port>
			</output>
		</layer>
		<layer id="201" name="/model.4/m.0/Add" type="Add" version="opset1">
			<data auto_broadcast="numpy" />
			<input>
				<port id="0" precision="FP32">
					<dim>1</dim>
					<dim>32</dim>
					<dim>52</dim>
					<dim>52</dim>
				</port>
				<port id="1" precision="FP32">
					<dim>1</dim>
					<dim>32</dim>
					<dim>52</dim>
					<dim>52</dim>
				</port>
			</input>
			<output>
				<port id="2" precision="FP32" names="/model.4/m.0/Add_output_0">
					<dim>1</dim>
					<dim>32</dim>
					<dim>52</dim>
					<dim>52</dim>
				</port>
			</output>
		</layer>
		<layer id="202" name="model.4.m.1.cv1.conv.weight" type="Const" version="opset1">
			<data element_type="f32" shape="32, 32, 3, 3" offset="206012" size="36864" />
			<output>
				<port id="0" precision="FP32" names="model.4.m.1.cv1.conv.weight">
					<dim>32</dim>
					<dim>32</dim>
					<dim>3</dim>
					<dim>3</dim>
				</port>
			</output>
		</layer>
		<layer id="203" name="/model.4/m.1/cv1/conv/Conv/WithoutBiases" type="Convolution" version="opset1">
			<data strides="1, 1" dilations="1, 1" pads_begin="1, 1" pads_end="1, 1" auto_pad="explicit" />
			<input>
				<port id="0" precision="FP32">
					<dim>1</dim>
					<dim>32</dim>
					<dim>52</dim>
					<dim>52</dim>
				</port>
				<port id="1" precision="FP32">
					<dim>32</dim>
					<dim>32</dim>
					<dim>3</dim>
					<dim>3</dim>
				</port>
			</input>
			<output>
				<port id="2" precision="FP32">
					<dim>1</dim>
					<dim>32</dim>
					<dim>52</dim>
					<dim>52</dim>
				</port>
			</output>
		</layer>
		<layer id="204" name="Reshape_758" type="Const" version="opset1">
			<data element_type="f32" shape="1, 32, 1, 1" offset="242876" size="128" />
			<output>
				<port id="0" precision="FP32">
					<dim>1</dim>
					<dim>32</dim>
					<dim>1</dim>
					<dim>1</dim>
				</port>
			</output>
		</layer>
		<layer id="205" name="/model.4/m.1/cv1/conv/Conv" type="Add" version="opset1">
			<data auto_broadcast="numpy" />
			<input>
				<port id="0" precision="FP32">
					<dim>1</dim>
					<dim>32</dim>
					<dim>52</dim>
					<dim>52</dim>
				</port>
				<port id="1" precision="FP32">
					<dim>1</dim>
					<dim>32</dim>
					<dim>1</dim>
					<dim>1</dim>
				</port>
			</input>
			<output>
				<port id="2" precision="FP32" names="/model.4/m.1/cv1/conv/Conv_output_0">
					<dim>1</dim>
					<dim>32</dim>
					<dim>52</dim>
					<dim>52</dim>
				</port>
			</output>
		</layer>
		<layer id="206" name="/model.4/m.1/cv1/act/Mul" type="Swish" version="opset4">
			<input>
				<port id="0" precision="FP32">
					<dim>1</dim>
					<dim>32</dim>
					<dim>52</dim>
					<dim>52</dim>
				</port>
			</input>
			<output>
				<port id="1" precision="FP32" names="/model.4/m.1/cv1/act/Mul_output_0">
					<dim>1</dim>
					<dim>32</dim>
					<dim>52</dim>
					<dim>52</dim>
				</port>
			</output>
		</layer>
		<layer id="207" name="/model.4/m.1/cv2/SRU/gn/Constant" type="Const" version="opset1">
			<data element_type="i64" shape="3" offset="62272" size="24" />
			<output>
				<port id="0" precision="I64" names="/model.4/m.1/cv2/SRU/gn/Constant_output_0">
					<dim>3</dim>
				</port>
			</output>
		</layer>
		<layer id="208" name="/model.4/m.1/cv2/SRU/gn/Reshape" type="Reshape" version="opset1">
			<data special_zero="true" />
			<input>
				<port id="0" precision="FP32">
					<dim>1</dim>
					<dim>32</dim>
					<dim>52</dim>
					<dim>52</dim>
				</port>
				<port id="1" precision="I64">
					<dim>3</dim>
				</port>
			</input>
			<output>
				<port id="2" precision="FP32" names="/model.4/m.1/cv2/SRU/gn/Reshape_output_0">
					<dim>1</dim>
					<dim>16</dim>
					<dim>5408</dim>
				</port>
			</output>
		</layer>
		<layer id="209" name="Constant_765" type="Const" version="opset1">
			<data element_type="i64" shape="3" offset="62296" size="24" />
			<output>
				<port id="0" precision="I64">
					<dim>3</dim>
				</port>
			</output>
		</layer>
		<layer id="210" name="/model.4/m.1/cv2/SRU/gn/ReduceMean" type="ReduceMean" version="opset1">
			<data keep_dims="true" />
			<input>
				<port id="0" precision="FP32">
					<dim>1</dim>
					<dim>16</dim>
					<dim>5408</dim>
				</port>
				<port id="1" precision="I64">
					<dim>3</dim>
				</port>
			</input>
			<output>
				<port id="2" precision="FP32" names="/model.4/m.1/cv2/SRU/gn/ReduceMean_output_0">
					<dim>1</dim>
					<dim>1</dim>
					<dim>1</dim>
				</port>
			</output>
		</layer>
		<layer id="211" name="/model.4/m.1/cv2/SRU/gn/Sub_2" type="Subtract" version="opset1">
			<data auto_broadcast="numpy" />
			<input>
				<port id="0" precision="FP32">
					<dim>1</dim>
					<dim>16</dim>
					<dim>5408</dim>
				</port>
				<port id="1" precision="FP32">
					<dim>1</dim>
					<dim>1</dim>
					<dim>1</dim>
				</port>
			</input>
			<output>
				<port id="2" precision="FP32" names="/model.4/m.1/cv2/SRU/gn/Sub_2_output_0">
					<dim>1</dim>
					<dim>16</dim>
					<dim>5408</dim>
				</port>
			</output>
		</layer>
		<layer id="212" name="Constant_768" type="Const" version="opset1">
			<data element_type="i64" shape="3" offset="62296" size="24" />
			<output>
				<port id="0" precision="I64">
					<dim>3</dim>
				</port>
			</output>
		</layer>
		<layer id="213" name="/model.4/m.1/cv2/SRU/gn/ReduceMean_1" type="ReduceMean" version="opset1">
			<data keep_dims="true" />
			<input>
				<port id="0" precision="FP32">
					<dim>1</dim>
					<dim>16</dim>
					<dim>5408</dim>
				</port>
				<port id="1" precision="I64">
					<dim>3</dim>
				</port>
			</input>
			<output>
				<port id="2" precision="FP32" names="/model.4/m.1/cv2/SRU/gn/ReduceMean_1_output_0">
					<dim>1</dim>
					<dim>1</dim>
					<dim>1</dim>
				</port>
			</output>
		</layer>
		<layer id="214" name="/model.4/m.1/cv2/SRU/gn/Sub" type="Subtract" version="opset1">
			<data auto_broadcast="numpy" />
			<input>
				<port id="0" precision="FP32">
					<dim>1</dim>
					<dim>16</dim>
					<dim>5408</dim>
				</port>
				<port id="1" precision="FP32">
					<dim>1</dim>
					<dim>1</dim>
					<dim>1</dim>
				</port>
			</input>
			<output>
				<port id="2" precision="FP32" names="/model.4/m.1/cv2/SRU/gn/Sub_output_0">
					<dim>1</dim>
					<dim>16</dim>
					<dim>5408</dim>
				</port>
			</output>
		</layer>
		<layer id="215" name="/model.4/m.1/cv2/SRU/gn/Mul" type="Multiply" version="opset1">
			<data auto_broadcast="numpy" />
			<input>
				<port id="0" precision="FP32">
					<dim>1</dim>
					<dim>16</dim>
					<dim>5408</dim>
				</port>
				<port id="1" precision="FP32">
					<dim>1</dim>
					<dim>16</dim>
					<dim>5408</dim>
				</port>
			</input>
			<output>
				<port id="2" precision="FP32" names="/model.4/m.1/cv2/SRU/gn/Mul_output_0">
					<dim>1</dim>
					<dim>16</dim>
					<dim>5408</dim>
				</port>
			</output>
		</layer>
		<layer id="216" name="Constant_778" type="Const" version="opset1">
			<data element_type="i64" shape="3" offset="62296" size="24" />
			<output>
				<port id="0" precision="I64">
					<dim>3</dim>
				</port>
			</output>
		</layer>
		<layer id="217" name="/model.4/m.1/cv2/SRU/gn/ReduceMean_2" type="ReduceMean" version="opset1">
			<data keep_dims="true" />
			<input>
				<port id="0" precision="FP32">
					<dim>1</dim>
					<dim>16</dim>
					<dim>5408</dim>
				</port>
				<port id="1" precision="I64">
					<dim>3</dim>
				</port>
			</input>
			<output>
				<port id="2" precision="FP32" names="/model.4/m.1/cv2/SRU/gn/ReduceMean_2_output_0">
					<dim>1</dim>
					<dim>1</dim>
					<dim>1</dim>
				</port>
			</output>
		</layer>
		<layer id="218" name="/model.4/m.1/cv2/SRU/gn/Shape" type="ShapeOf" version="opset3">
			<data output_type="i64" />
			<input>
				<port id="0" precision="FP32">
					<dim>1</dim>
					<dim>16</dim>
					<dim>5408</dim>
				</port>
			</input>
			<output>
				<port id="1" precision="I64" names="/model.4/m.1/cv2/SRU/gn/Shape_output_0">
					<dim>3</dim>
				</port>
			</output>
		</layer>
		<layer id="219" name="/model.4/m.1/cv2/SRU/gn/Constant_3" type="Const" version="opset1">
			<data element_type="i64" shape="1" offset="62320" size="8" />
			<output>
				<port id="0" precision="I64" names="/model.4/m.1/cv2/SRU/gn/Constant_3_output_0">
					<dim>1</dim>
				</port>
			</output>
		</layer>
		<layer id="220" name="Constant_772" type="Const" version="opset1">
			<data element_type="i64" shape="" offset="62328" size="8" />
			<output>
				<port id="0" precision="I64" />
			</output>
		</layer>
		<layer id="221" name="/model.4/m.1/cv2/SRU/gn/Gather" type="Gather" version="opset8">
			<data batch_dims="0" />
			<input>
				<port id="0" precision="I64">
					<dim>3</dim>
				</port>
				<port id="1" precision="I64">
					<dim>1</dim>
				</port>
				<port id="2" precision="I64" />
			</input>
			<output>
				<port id="3" precision="I64" names="/model.4/m.1/cv2/SRU/gn/Gather_output_0">
					<dim>1</dim>
				</port>
			</output>
		</layer>
		<layer id="222" name="Constant_774" type="Const" version="opset1">
			<data element_type="i64" shape="1" offset="62328" size="8" />
			<output>
				<port id="0" precision="I64">
					<dim>1</dim>
				</port>
			</output>
		</layer>
		<layer id="223" name="/model.4/m.1/cv2/SRU/gn/ReduceProd" type="ReduceProd" version="opset1">
			<data keep_dims="false" />
			<input>
				<port id="0" precision="I64">
					<dim>1</dim>
				</port>
				<port id="1" precision="I64">
					<dim>1</dim>
				</port>
			</input>
			<output>
				<port id="2" precision="I64" names="/model.4/m.1/cv2/SRU/gn/ReduceProd_output_0" />
			</output>
		</layer>
		<layer id="224" name="/model.4/m.1/cv2/SRU/gn/Cast" type="Convert" version="opset1">
			<data destination_type="f32" />
			<input>
				<port id="0" precision="I64" />
			</input>
			<output>
				<port id="1" precision="FP32" names="/model.4/m.1/cv2/SRU/gn/Cast_output_0" />
			</output>
		</layer>
		<layer id="225" name="/model.4/m.1/cv2/SRU/gn/Mul_1" type="Multiply" version="opset1">
			<data auto_broadcast="numpy" />
			<input>
				<port id="0" precision="FP32">
					<dim>1</dim>
					<dim>1</dim>
					<dim>1</dim>
				</port>
				<port id="1" precision="FP32" />
			</input>
			<output>
				<port id="2" precision="FP32" names="/model.4/m.1/cv2/SRU/gn/Mul_1_output_0">
					<dim>1</dim>
					<dim>1</dim>
					<dim>1</dim>
				</port>
			</output>
		</layer>
		<layer id="226" name="Constant_9344" type="Const" version="opset1">
			<data element_type="f32" shape="" offset="62336" size="4" />
			<output>
				<port id="0" precision="FP32" />
			</output>
		</layer>
		<layer id="227" name="/model.4/m.1/cv2/SRU/gn/Sub_1" type="Add" version="opset1">
			<data auto_broadcast="numpy" />
			<input>
				<port id="0" precision="FP32" />
				<port id="1" precision="FP32" />
			</input>
			<output>
				<port id="2" precision="FP32" names="/model.4/m.1/cv2/SRU/gn/Sub_1_output_0" />
			</output>
		</layer>
		<layer id="228" name="/model.4/m.1/cv2/SRU/gn/Div" type="Divide" version="opset1">
			<data auto_broadcast="numpy" m_pythondiv="true" />
			<input>
				<port id="0" precision="FP32">
					<dim>1</dim>
					<dim>1</dim>
					<dim>1</dim>
				</port>
				<port id="1" precision="FP32" />
			</input>
			<output>
				<port id="2" precision="FP32" names="/model.4/m.1/cv2/SRU/gn/Div_output_0">
					<dim>1</dim>
					<dim>1</dim>
					<dim>1</dim>
				</port>
			</output>
		</layer>
		<layer id="229" name="/model.4/m.1/cv2/SRU/gn/Sqrt" type="Sqrt" version="opset1">
			<input>
				<port id="0" precision="FP32">
					<dim>1</dim>
					<dim>1</dim>
					<dim>1</dim>
				</port>
			</input>
			<output>
				<port id="1" precision="FP32" names="/model.4/m.1/cv2/SRU/gn/Sqrt_output_0">
					<dim>1</dim>
					<dim>1</dim>
					<dim>1</dim>
				</port>
			</output>
		</layer>
		<layer id="230" name="Constant_9472" type="Const" version="opset1">
			<data element_type="f32" shape="1, 1, 1" offset="62340" size="4" />
			<output>
				<port id="0" precision="FP32">
					<dim>1</dim>
					<dim>1</dim>
					<dim>1</dim>
				</port>
			</output>
		</layer>
		<layer id="231" name="/model.4/m.1/cv2/SRU/gn/Add" type="Add" version="opset1">
			<data auto_broadcast="numpy" />
			<input>
				<port id="0" precision="FP32">
					<dim>1</dim>
					<dim>1</dim>
					<dim>1</dim>
				</port>
				<port id="1" precision="FP32">
					<dim>1</dim>
					<dim>1</dim>
					<dim>1</dim>
				</port>
			</input>
			<output>
				<port id="2" precision="FP32" names="/model.4/m.1/cv2/SRU/gn/Add_output_0">
					<dim>1</dim>
					<dim>1</dim>
					<dim>1</dim>
				</port>
			</output>
		</layer>
		<layer id="232" name="/model.4/m.1/cv2/SRU/gn/Div_1" type="Divide" version="opset1">
			<data auto_broadcast="numpy" m_pythondiv="true" />
			<input>
				<port id="0" precision="FP32">
					<dim>1</dim>
					<dim>16</dim>
					<dim>5408</dim>
				</port>
				<port id="1" precision="FP32">
					<dim>1</dim>
					<dim>1</dim>
					<dim>1</dim>
				</port>
			</input>
			<output>
				<port id="2" precision="FP32" names="/model.4/m.1/cv2/SRU/gn/Div_1_output_0">
					<dim>1</dim>
					<dim>16</dim>
					<dim>5408</dim>
				</port>
			</output>
		</layer>
		<layer id="233" name="/model.4/m.1/cv2/SRU/gn/Constant_6" type="Const" version="opset1">
			<data element_type="i64" shape="4" offset="198300" size="32" />
			<output>
				<port id="0" precision="I64" names="/model.4/m.1/cv2/SRU/gn/Constant_6_output_0">
					<dim>4</dim>
				</port>
			</output>
		</layer>
		<layer id="234" name="/model.4/m.1/cv2/SRU/gn/Reshape_1" type="Reshape" version="opset1">
			<data special_zero="true" />
			<input>
				<port id="0" precision="FP32">
					<dim>1</dim>
					<dim>16</dim>
					<dim>5408</dim>
				</port>
				<port id="1" precision="I64">
					<dim>4</dim>
				</port>
			</input>
			<output>
				<port id="2" precision="FP32" names="/model.4/m.1/cv2/SRU/gn/Reshape_1_output_0">
					<dim>1</dim>
					<dim>32</dim>
					<dim>52</dim>
					<dim>52</dim>
				</port>
			</output>
		</layer>
		<layer id="235" name="Constant_9473" type="Const" version="opset1">
			<data element_type="f32" shape="1, 32, 1, 1" offset="243004" size="128" />
			<output>
				<port id="0" precision="FP32">
					<dim>1</dim>
					<dim>32</dim>
					<dim>1</dim>
					<dim>1</dim>
				</port>
			</output>
		</layer>
		<layer id="236" name="/model.4/m.1/cv2/SRU/Mul" type="Multiply" version="opset1">
			<data auto_broadcast="numpy" />
			<input>
				<port id="0" precision="FP32">
					<dim>1</dim>
					<dim>32</dim>
					<dim>52</dim>
					<dim>52</dim>
				</port>
				<port id="1" precision="FP32">
					<dim>1</dim>
					<dim>32</dim>
					<dim>1</dim>
					<dim>1</dim>
				</port>
			</input>
			<output>
				<port id="2" precision="FP32" names="/model.4/m.1/cv2/SRU/Mul_output_0">
					<dim>1</dim>
					<dim>32</dim>
					<dim>52</dim>
					<dim>52</dim>
				</port>
			</output>
		</layer>
		<layer id="237" name="/model.4/m.1/cv2/SRU/sigomid/Sigmoid" type="Sigmoid" version="opset1">
			<input>
				<port id="0" precision="FP32">
					<dim>1</dim>
					<dim>32</dim>
					<dim>52</dim>
					<dim>52</dim>
				</port>
			</input>
			<output>
				<port id="1" precision="FP32" names="/model.4/m.1/cv2/SRU/sigomid/Sigmoid_output_0">
					<dim>1</dim>
					<dim>32</dim>
					<dim>52</dim>
					<dim>52</dim>
				</port>
			</output>
		</layer>
		<layer id="238" name="Constant_9474" type="Const" version="opset1">
			<data element_type="f32" shape="1, 1, 1, 1" offset="62440" size="4" />
			<output>
				<port id="0" precision="FP32">
					<dim>1</dim>
					<dim>1</dim>
					<dim>1</dim>
					<dim>1</dim>
				</port>
			</output>
		</layer>
		<layer id="239" name="Func_/model.4/m.1/cv2/SRU/GreaterOrEqualO1" type="Greater" version="opset1">
			<data auto_broadcast="numpy" />
			<input>
				<port id="0" precision="FP32">
					<dim>1</dim>
					<dim>32</dim>
					<dim>52</dim>
					<dim>52</dim>
				</port>
				<port id="1" precision="FP32">
					<dim>1</dim>
					<dim>1</dim>
					<dim>1</dim>
					<dim>1</dim>
				</port>
			</input>
			<output>
				<port id="2" precision="BOOL" names="Func_/model.4/m.1/cv2/SRU/GreaterOrEqualO1">
					<dim>1</dim>
					<dim>32</dim>
					<dim>52</dim>
					<dim>52</dim>
				</port>
			</output>
		</layer>
		<layer id="240" name="Constant_9475" type="Const" version="opset1">
			<data element_type="f32" shape="1, 1, 1, 1" offset="62440" size="4" />
			<output>
				<port id="0" precision="FP32">
					<dim>1</dim>
					<dim>1</dim>
					<dim>1</dim>
					<dim>1</dim>
				</port>
			</output>
		</layer>
		<layer id="241" name="Func_/model.4/m.1/cv2/SRU/GreaterOrEqualO2" type="Equal" version="opset1">
			<data auto_broadcast="numpy" />
			<input>
				<port id="0" precision="FP32">
					<dim>1</dim>
					<dim>32</dim>
					<dim>52</dim>
					<dim>52</dim>
				</port>
				<port id="1" precision="FP32">
					<dim>1</dim>
					<dim>1</dim>
					<dim>1</dim>
					<dim>1</dim>
				</port>
			</input>
			<output>
				<port id="2" precision="BOOL" names="Func_/model.4/m.1/cv2/SRU/GreaterOrEqualO2">
					<dim>1</dim>
					<dim>32</dim>
					<dim>52</dim>
					<dim>52</dim>
				</port>
			</output>
		</layer>
		<layer id="242" name="/model.4/m.1/cv2/SRU/GreaterOrEqual_output_0" type="LogicalOr" version="opset1">
			<data auto_broadcast="numpy" />
			<input>
				<port id="0" precision="BOOL">
					<dim>1</dim>
					<dim>32</dim>
					<dim>52</dim>
					<dim>52</dim>
				</port>
				<port id="1" precision="BOOL">
					<dim>1</dim>
					<dim>32</dim>
					<dim>52</dim>
					<dim>52</dim>
				</port>
			</input>
			<output>
				<port id="2" precision="BOOL" names="/model.4/m.1/cv2/SRU/GreaterOrEqual_output_0">
					<dim>1</dim>
					<dim>32</dim>
					<dim>52</dim>
					<dim>52</dim>
				</port>
			</output>
		</layer>
		<layer id="243" name="/model.4/m.1/cv2/SRU/Cast" type="Convert" version="opset1">
			<data destination_type="f32" />
			<input>
				<port id="0" precision="BOOL">
					<dim>1</dim>
					<dim>32</dim>
					<dim>52</dim>
					<dim>52</dim>
				</port>
			</input>
			<output>
				<port id="1" precision="FP32" names="/model.4/m.1/cv2/SRU/Cast_output_0">
					<dim>1</dim>
					<dim>32</dim>
					<dim>52</dim>
					<dim>52</dim>
				</port>
			</output>
		</layer>
		<layer id="244" name="/model.4/m.1/cv2/SRU/Mul_1" type="Multiply" version="opset1">
			<data auto_broadcast="numpy" />
			<input>
				<port id="0" precision="FP32">
					<dim>1</dim>
					<dim>32</dim>
					<dim>52</dim>
					<dim>52</dim>
				</port>
				<port id="1" precision="FP32">
					<dim>1</dim>
					<dim>32</dim>
					<dim>52</dim>
					<dim>52</dim>
				</port>
			</input>
			<output>
				<port id="2" precision="FP32" names="/model.4/m.1/cv2/SRU/Mul_1_output_0">
					<dim>1</dim>
					<dim>32</dim>
					<dim>52</dim>
					<dim>52</dim>
				</port>
			</output>
		</layer>
		<layer id="245" name="Constant_908" type="Const" version="opset1">
			<data element_type="i64" shape="" offset="52968" size="8" />
			<output>
				<port id="0" precision="I64" />
			</output>
		</layer>
		<layer id="246" name="/model.4/m.1/cv2/SRU/Constant_36" type="Const" version="opset1">
			<data element_type="i64" shape="2" offset="52976" size="16" />
			<output>
				<port id="0" precision="I64" names="/model.4/m.1/cv2/SRU/Constant_36_output_0">
					<dim>2</dim>
				</port>
			</output>
		</layer>
		<layer id="247" name="/model.4/m.1/cv2/SRU/Split_1" type="VariadicSplit" version="opset1">
			<input>
				<port id="0" precision="FP32">
					<dim>1</dim>
					<dim>32</dim>
					<dim>52</dim>
					<dim>52</dim>
				</port>
				<port id="1" precision="I64" />
				<port id="2" precision="I64">
					<dim>2</dim>
				</port>
			</input>
			<output>
				<port id="3" precision="FP32" names="/model.4/m.1/cv2/SRU/Split_1_output_0">
					<dim>1</dim>
					<dim>16</dim>
					<dim>52</dim>
					<dim>52</dim>
				</port>
				<port id="4" precision="FP32" names="/model.4/m.1/cv2/SRU/Split_1_output_1">
					<dim>1</dim>
					<dim>16</dim>
					<dim>52</dim>
					<dim>52</dim>
				</port>
			</output>
		</layer>
		<layer id="248" name="Constant_9476" type="Const" version="opset1">
			<data element_type="f32" shape="1, 1, 1, 1" offset="62440" size="4" />
			<output>
				<port id="0" precision="FP32">
					<dim>1</dim>
					<dim>1</dim>
					<dim>1</dim>
					<dim>1</dim>
				</port>
			</output>
		</layer>
		<layer id="249" name="/model.4/m.1/cv2/SRU/Less" type="Less" version="opset1">
			<data auto_broadcast="numpy" />
			<input>
				<port id="0" precision="FP32">
					<dim>1</dim>
					<dim>32</dim>
					<dim>52</dim>
					<dim>52</dim>
				</port>
				<port id="1" precision="FP32">
					<dim>1</dim>
					<dim>1</dim>
					<dim>1</dim>
					<dim>1</dim>
				</port>
			</input>
			<output>
				<port id="2" precision="BOOL" names="/model.4/m.1/cv2/SRU/Less_output_0">
					<dim>1</dim>
					<dim>32</dim>
					<dim>52</dim>
					<dim>52</dim>
				</port>
			</output>
		</layer>
		<layer id="250" name="/model.4/m.1/cv2/SRU/Cast_1" type="Convert" version="opset1">
			<data destination_type="f32" />
			<input>
				<port id="0" precision="BOOL">
					<dim>1</dim>
					<dim>32</dim>
					<dim>52</dim>
					<dim>52</dim>
				</port>
			</input>
			<output>
				<port id="1" precision="FP32" names="/model.4/m.1/cv2/SRU/Cast_1_output_0">
					<dim>1</dim>
					<dim>32</dim>
					<dim>52</dim>
					<dim>52</dim>
				</port>
			</output>
		</layer>
		<layer id="251" name="/model.4/m.1/cv2/SRU/Mul_2" type="Multiply" version="opset1">
			<data auto_broadcast="numpy" />
			<input>
				<port id="0" precision="FP32">
					<dim>1</dim>
					<dim>32</dim>
					<dim>52</dim>
					<dim>52</dim>
				</port>
				<port id="1" precision="FP32">
					<dim>1</dim>
					<dim>32</dim>
					<dim>52</dim>
					<dim>52</dim>
				</port>
			</input>
			<output>
				<port id="2" precision="FP32" names="/model.4/m.1/cv2/SRU/Mul_2_output_0">
					<dim>1</dim>
					<dim>32</dim>
					<dim>52</dim>
					<dim>52</dim>
				</port>
			</output>
		</layer>
		<layer id="252" name="Constant_911" type="Const" version="opset1">
			<data element_type="i64" shape="" offset="52968" size="8" />
			<output>
				<port id="0" precision="I64" />
			</output>
		</layer>
		<layer id="253" name="/model.4/m.1/cv2/SRU/Constant_37" type="Const" version="opset1">
			<data element_type="i64" shape="2" offset="52976" size="16" />
			<output>
				<port id="0" precision="I64" names="/model.4/m.1/cv2/SRU/Constant_37_output_0">
					<dim>2</dim>
				</port>
			</output>
		</layer>
		<layer id="254" name="/model.4/m.1/cv2/SRU/Split_2" type="VariadicSplit" version="opset1">
			<input>
				<port id="0" precision="FP32">
					<dim>1</dim>
					<dim>32</dim>
					<dim>52</dim>
					<dim>52</dim>
				</port>
				<port id="1" precision="I64" />
				<port id="2" precision="I64">
					<dim>2</dim>
				</port>
			</input>
			<output>
				<port id="3" precision="FP32" names="/model.4/m.1/cv2/SRU/Split_2_output_0">
					<dim>1</dim>
					<dim>16</dim>
					<dim>52</dim>
					<dim>52</dim>
				</port>
				<port id="4" precision="FP32" names="/model.4/m.1/cv2/SRU/Split_2_output_1">
					<dim>1</dim>
					<dim>16</dim>
					<dim>52</dim>
					<dim>52</dim>
				</port>
			</output>
		</layer>
		<layer id="255" name="/model.4/m.1/cv2/SRU/Add_32" type="Add" version="opset1">
			<data auto_broadcast="numpy" />
			<input>
				<port id="0" precision="FP32">
					<dim>1</dim>
					<dim>16</dim>
					<dim>52</dim>
					<dim>52</dim>
				</port>
				<port id="1" precision="FP32">
					<dim>1</dim>
					<dim>16</dim>
					<dim>52</dim>
					<dim>52</dim>
				</port>
			</input>
			<output>
				<port id="2" precision="FP32" names="/model.4/m.1/cv2/SRU/Add_32_output_0">
					<dim>1</dim>
					<dim>16</dim>
					<dim>52</dim>
					<dim>52</dim>
				</port>
			</output>
		</layer>
		<layer id="256" name="/model.4/m.1/cv2/SRU/Add_33" type="Add" version="opset1">
			<data auto_broadcast="numpy" />
			<input>
				<port id="0" precision="FP32">
					<dim>1</dim>
					<dim>16</dim>
					<dim>52</dim>
					<dim>52</dim>
				</port>
				<port id="1" precision="FP32">
					<dim>1</dim>
					<dim>16</dim>
					<dim>52</dim>
					<dim>52</dim>
				</port>
			</input>
			<output>
				<port id="2" precision="FP32" names="/model.4/m.1/cv2/SRU/Add_33_output_0">
					<dim>1</dim>
					<dim>16</dim>
					<dim>52</dim>
					<dim>52</dim>
				</port>
			</output>
		</layer>
		<layer id="257" name="/model.4/m.1/cv2/SRU/Concat" type="Concat" version="opset1">
			<data axis="1" />
			<input>
				<port id="0" precision="FP32">
					<dim>1</dim>
					<dim>16</dim>
					<dim>52</dim>
					<dim>52</dim>
				</port>
				<port id="1" precision="FP32">
					<dim>1</dim>
					<dim>16</dim>
					<dim>52</dim>
					<dim>52</dim>
				</port>
			</input>
			<output>
				<port id="2" precision="FP32" names="/model.4/m.1/cv2/SRU/Concat_output_0">
					<dim>1</dim>
					<dim>32</dim>
					<dim>52</dim>
					<dim>52</dim>
				</port>
			</output>
		</layer>
		<layer id="258" name="Constant_916" type="Const" version="opset1">
			<data element_type="i64" shape="" offset="52968" size="8" />
			<output>
				<port id="0" precision="I64" />
			</output>
		</layer>
		<layer id="259" name="/model.4/m.1/cv2/CRU/Split" type="VariadicSplit" version="opset1">
			<input>
				<port id="0" precision="FP32">
					<dim>1</dim>
					<dim>32</dim>
					<dim>52</dim>
					<dim>52</dim>
				</port>
				<port id="1" precision="I64" />
				<port id="2" precision="I64">
					<dim>2</dim>
				</port>
			</input>
			<output>
				<port id="3" precision="FP32" names="/model.4/m.1/cv2/CRU/Split_output_0">
					<dim>1</dim>
					<dim>16</dim>
					<dim>52</dim>
					<dim>52</dim>
				</port>
				<port id="4" precision="FP32" names="/model.4/m.1/cv2/CRU/Split_output_1">
					<dim>1</dim>
					<dim>16</dim>
					<dim>52</dim>
					<dim>52</dim>
				</port>
			</output>
		</layer>
		<layer id="260" name="model.4.m.1.cv2.CRU.squeeze1.weight" type="Const" version="opset1">
			<data element_type="f32" shape="8, 16, 1, 1" offset="243132" size="512" />
			<output>
				<port id="0" precision="FP32" names="model.4.m.1.cv2.CRU.squeeze1.weight">
					<dim>8</dim>
					<dim>16</dim>
					<dim>1</dim>
					<dim>1</dim>
				</port>
			</output>
		</layer>
		<layer id="261" name="/model.4/m.1/cv2/CRU/squeeze1/Conv" type="Convolution" version="opset1">
			<data strides="1, 1" dilations="1, 1" pads_begin="0, 0" pads_end="0, 0" auto_pad="explicit" />
			<input>
				<port id="0" precision="FP32">
					<dim>1</dim>
					<dim>16</dim>
					<dim>52</dim>
					<dim>52</dim>
				</port>
				<port id="1" precision="FP32">
					<dim>8</dim>
					<dim>16</dim>
					<dim>1</dim>
					<dim>1</dim>
				</port>
			</input>
			<output>
				<port id="2" precision="FP32" names="/model.4/m.1/cv2/CRU/squeeze1/Conv_output_0">
					<dim>1</dim>
					<dim>8</dim>
					<dim>52</dim>
					<dim>52</dim>
				</port>
			</output>
		</layer>
		<layer id="262" name="Reshape_929" type="Const" version="opset1">
			<data element_type="f32" shape="2, 16, 4, 3, 3" offset="243644" size="4608" />
			<output>
				<port id="0" precision="FP32">
					<dim>2</dim>
					<dim>16</dim>
					<dim>4</dim>
					<dim>3</dim>
					<dim>3</dim>
				</port>
			</output>
		</layer>
		<layer id="263" name="/model.4/m.1/cv2/CRU/GWC/Conv/WithoutBiases" type="GroupConvolution" version="opset1">
			<data strides="1, 1" pads_begin="1, 1" pads_end="1, 1" dilations="1, 1" auto_pad="explicit" />
			<input>
				<port id="0" precision="FP32">
					<dim>1</dim>
					<dim>8</dim>
					<dim>52</dim>
					<dim>52</dim>
				</port>
				<port id="1" precision="FP32">
					<dim>2</dim>
					<dim>16</dim>
					<dim>4</dim>
					<dim>3</dim>
					<dim>3</dim>
				</port>
			</input>
			<output>
				<port id="2" precision="FP32">
					<dim>1</dim>
					<dim>32</dim>
					<dim>52</dim>
					<dim>52</dim>
				</port>
			</output>
		</layer>
		<layer id="264" name="Reshape_979" type="Const" version="opset1">
			<data element_type="f32" shape="1, 32, 1, 1" offset="248252" size="128" />
			<output>
				<port id="0" precision="FP32">
					<dim>1</dim>
					<dim>32</dim>
					<dim>1</dim>
					<dim>1</dim>
				</port>
			</output>
		</layer>
		<layer id="265" name="/model.4/m.1/cv2/CRU/GWC/Conv" type="Add" version="opset1">
			<data auto_broadcast="numpy" />
			<input>
				<port id="0" precision="FP32">
					<dim>1</dim>
					<dim>32</dim>
					<dim>52</dim>
					<dim>52</dim>
				</port>
				<port id="1" precision="FP32">
					<dim>1</dim>
					<dim>32</dim>
					<dim>1</dim>
					<dim>1</dim>
				</port>
			</input>
			<output>
				<port id="2" precision="FP32" names="/model.4/m.1/cv2/CRU/GWC/Conv_output_0">
					<dim>1</dim>
					<dim>32</dim>
					<dim>52</dim>
					<dim>52</dim>
				</port>
			</output>
		</layer>
		<layer id="266" name="model.4.m.1.cv2.CRU.PWC1.weight" type="Const" version="opset1">
			<data element_type="f32" shape="32, 8, 1, 1" offset="248380" size="1024" />
			<output>
				<port id="0" precision="FP32" names="model.4.m.1.cv2.CRU.PWC1.weight">
					<dim>32</dim>
					<dim>8</dim>
					<dim>1</dim>
					<dim>1</dim>
				</port>
			</output>
		</layer>
		<layer id="267" name="/model.4/m.1/cv2/CRU/PWC1/Conv" type="Convolution" version="opset1">
			<data strides="1, 1" dilations="1, 1" pads_begin="0, 0" pads_end="0, 0" auto_pad="explicit" />
			<input>
				<port id="0" precision="FP32">
					<dim>1</dim>
					<dim>8</dim>
					<dim>52</dim>
					<dim>52</dim>
				</port>
				<port id="1" precision="FP32">
					<dim>32</dim>
					<dim>8</dim>
					<dim>1</dim>
					<dim>1</dim>
				</port>
			</input>
			<output>
				<port id="2" precision="FP32" names="/model.4/m.1/cv2/CRU/PWC1/Conv_output_0">
					<dim>1</dim>
					<dim>32</dim>
					<dim>52</dim>
					<dim>52</dim>
				</port>
			</output>
		</layer>
		<layer id="268" name="/model.4/m.1/cv2/CRU/Add" type="Add" version="opset1">
			<data auto_broadcast="numpy" />
			<input>
				<port id="0" precision="FP32">
					<dim>1</dim>
					<dim>32</dim>
					<dim>52</dim>
					<dim>52</dim>
				</port>
				<port id="1" precision="FP32">
					<dim>1</dim>
					<dim>32</dim>
					<dim>52</dim>
					<dim>52</dim>
				</port>
			</input>
			<output>
				<port id="2" precision="FP32" names="/model.4/m.1/cv2/CRU/Add_output_0">
					<dim>1</dim>
					<dim>32</dim>
					<dim>52</dim>
					<dim>52</dim>
				</port>
			</output>
		</layer>
		<layer id="269" name="model.4.m.1.cv2.CRU.squeeze2.weight" type="Const" version="opset1">
			<data element_type="f32" shape="8, 16, 1, 1" offset="249404" size="512" />
			<output>
				<port id="0" precision="FP32" names="model.4.m.1.cv2.CRU.squeeze2.weight">
					<dim>8</dim>
					<dim>16</dim>
					<dim>1</dim>
					<dim>1</dim>
				</port>
			</output>
		</layer>
		<layer id="270" name="/model.4/m.1/cv2/CRU/squeeze2/Conv" type="Convolution" version="opset1">
			<data strides="1, 1" dilations="1, 1" pads_begin="0, 0" pads_end="0, 0" auto_pad="explicit" />
			<input>
				<port id="0" precision="FP32">
					<dim>1</dim>
					<dim>16</dim>
					<dim>52</dim>
					<dim>52</dim>
				</port>
				<port id="1" precision="FP32">
					<dim>8</dim>
					<dim>16</dim>
					<dim>1</dim>
					<dim>1</dim>
				</port>
			</input>
			<output>
				<port id="2" precision="FP32" names="/model.4/m.1/cv2/CRU/squeeze2/Conv_output_0">
					<dim>1</dim>
					<dim>8</dim>
					<dim>52</dim>
					<dim>52</dim>
				</port>
			</output>
		</layer>
		<layer id="271" name="model.4.m.1.cv2.CRU.PWC2.weight" type="Const" version="opset1">
			<data element_type="f32" shape="24, 8, 1, 1" offset="249916" size="768" />
			<output>
				<port id="0" precision="FP32" names="model.4.m.1.cv2.CRU.PWC2.weight">
					<dim>24</dim>
					<dim>8</dim>
					<dim>1</dim>
					<dim>1</dim>
				</port>
			</output>
		</layer>
		<layer id="272" name="/model.4/m.1/cv2/CRU/PWC2/Conv" type="Convolution" version="opset1">
			<data strides="1, 1" dilations="1, 1" pads_begin="0, 0" pads_end="0, 0" auto_pad="explicit" />
			<input>
				<port id="0" precision="FP32">
					<dim>1</dim>
					<dim>8</dim>
					<dim>52</dim>
					<dim>52</dim>
				</port>
				<port id="1" precision="FP32">
					<dim>24</dim>
					<dim>8</dim>
					<dim>1</dim>
					<dim>1</dim>
				</port>
			</input>
			<output>
				<port id="2" precision="FP32" names="/model.4/m.1/cv2/CRU/PWC2/Conv_output_0">
					<dim>1</dim>
					<dim>24</dim>
					<dim>52</dim>
					<dim>52</dim>
				</port>
			</output>
		</layer>
		<layer id="273" name="/model.4/m.1/cv2/CRU/Concat" type="Concat" version="opset1">
			<data axis="1" />
			<input>
				<port id="0" precision="FP32">
					<dim>1</dim>
					<dim>32</dim>
					<dim>52</dim>
					<dim>52</dim>
				</port>
				<port id="1" precision="FP32">
					<dim>1</dim>
					<dim>24</dim>
					<dim>52</dim>
					<dim>52</dim>
				</port>
				<port id="2" precision="FP32">
					<dim>1</dim>
					<dim>8</dim>
					<dim>52</dim>
					<dim>52</dim>
				</port>
			</input>
			<output>
				<port id="3" precision="FP32" names="/model.4/m.1/cv2/CRU/Concat_output_0">
					<dim>1</dim>
					<dim>64</dim>
					<dim>52</dim>
					<dim>52</dim>
				</port>
			</output>
		</layer>
		<layer id="274" name="Range_993" type="Const" version="opset1">
			<data element_type="i64" shape="2" offset="64380" size="16" />
			<output>
				<port id="0" precision="I64">
					<dim>2</dim>
				</port>
			</output>
		</layer>
		<layer id="275" name="/model.4/m.1/cv2/CRU/advavg/GlobalAveragePool" type="ReduceMean" version="opset1">
			<data keep_dims="true" />
			<input>
				<port id="0" precision="FP32">
					<dim>1</dim>
					<dim>64</dim>
					<dim>52</dim>
					<dim>52</dim>
				</port>
				<port id="1" precision="I64">
					<dim>2</dim>
				</port>
			</input>
			<output>
				<port id="2" precision="FP32" names="/model.4/m.1/cv2/CRU/advavg/GlobalAveragePool_output_0">
					<dim>1</dim>
					<dim>64</dim>
					<dim>1</dim>
					<dim>1</dim>
				</port>
			</output>
		</layer>
		<layer id="276" name="/model.4/m.1/cv2/CRU/Softmax" type="SoftMax" version="opset8">
			<data axis="1" />
			<input>
				<port id="0" precision="FP32">
					<dim>1</dim>
					<dim>64</dim>
					<dim>1</dim>
					<dim>1</dim>
				</port>
			</input>
			<output>
				<port id="1" precision="FP32" names="/model.4/m.1/cv2/CRU/Softmax_output_0">
					<dim>1</dim>
					<dim>64</dim>
					<dim>1</dim>
					<dim>1</dim>
				</port>
			</output>
		</layer>
		<layer id="277" name="/model.4/m.1/cv2/CRU/Mul" type="Multiply" version="opset1">
			<data auto_broadcast="numpy" />
			<input>
				<port id="0" precision="FP32">
					<dim>1</dim>
					<dim>64</dim>
					<dim>1</dim>
					<dim>1</dim>
				</port>
				<port id="1" precision="FP32">
					<dim>1</dim>
					<dim>64</dim>
					<dim>52</dim>
					<dim>52</dim>
				</port>
			</input>
			<output>
				<port id="2" precision="FP32" names="/model.4/m.1/cv2/CRU/Mul_output_0">
					<dim>1</dim>
					<dim>64</dim>
					<dim>52</dim>
					<dim>52</dim>
				</port>
			</output>
		</layer>
		<layer id="278" name="Constant_1000" type="Const" version="opset1">
			<data element_type="i64" shape="" offset="52968" size="8" />
			<output>
				<port id="0" precision="I64" />
			</output>
		</layer>
		<layer id="279" name="/model.4/m.1/cv2/CRU/Constant" type="Const" version="opset1">
			<data element_type="i64" shape="2" offset="161292" size="16" />
			<output>
				<port id="0" precision="I64" names="/model.4/m.1/cv2/CRU/Constant_output_0">
					<dim>2</dim>
				</port>
			</output>
		</layer>
		<layer id="280" name="/model.4/m.1/cv2/CRU/Split_1" type="VariadicSplit" version="opset1">
			<input>
				<port id="0" precision="FP32">
					<dim>1</dim>
					<dim>64</dim>
					<dim>52</dim>
					<dim>52</dim>
				</port>
				<port id="1" precision="I64" />
				<port id="2" precision="I64">
					<dim>2</dim>
				</port>
			</input>
			<output>
				<port id="3" precision="FP32" names="/model.4/m.1/cv2/CRU/Split_1_output_0">
					<dim>1</dim>
					<dim>32</dim>
					<dim>52</dim>
					<dim>52</dim>
				</port>
				<port id="4" precision="FP32" names="/model.4/m.1/cv2/CRU/Split_1_output_1">
					<dim>1</dim>
					<dim>32</dim>
					<dim>52</dim>
					<dim>52</dim>
				</port>
			</output>
		</layer>
		<layer id="281" name="/model.4/m.1/cv2/CRU/Add_1" type="Add" version="opset1">
			<data auto_broadcast="numpy" />
			<input>
				<port id="0" precision="FP32">
					<dim>1</dim>
					<dim>32</dim>
					<dim>52</dim>
					<dim>52</dim>
				</port>
				<port id="1" precision="FP32">
					<dim>1</dim>
					<dim>32</dim>
					<dim>52</dim>
					<dim>52</dim>
				</port>
			</input>
			<output>
				<port id="2" precision="FP32" names="/model.4/m.1/cv2/CRU/Add_1_output_0">
					<dim>1</dim>
					<dim>32</dim>
					<dim>52</dim>
					<dim>52</dim>
				</port>
			</output>
		</layer>
		<layer id="282" name="/model.4/m.1/Add" type="Add" version="opset1">
			<data auto_broadcast="numpy" />
			<input>
				<port id="0" precision="FP32">
					<dim>1</dim>
					<dim>32</dim>
					<dim>52</dim>
					<dim>52</dim>
				</port>
				<port id="1" precision="FP32">
					<dim>1</dim>
					<dim>32</dim>
					<dim>52</dim>
					<dim>52</dim>
				</port>
			</input>
			<output>
				<port id="2" precision="FP32" names="/model.4/m.1/Add_output_0">
					<dim>1</dim>
					<dim>32</dim>
					<dim>52</dim>
					<dim>52</dim>
				</port>
			</output>
		</layer>
		<layer id="283" name="/model.4/Concat" type="Concat" version="opset1">
			<data axis="1" />
			<input>
				<port id="0" precision="FP32">
					<dim>1</dim>
					<dim>32</dim>
					<dim>52</dim>
					<dim>52</dim>
				</port>
				<port id="1" precision="FP32">
					<dim>1</dim>
					<dim>32</dim>
					<dim>52</dim>
					<dim>52</dim>
				</port>
				<port id="2" precision="FP32">
					<dim>1</dim>
					<dim>32</dim>
					<dim>52</dim>
					<dim>52</dim>
				</port>
				<port id="3" precision="FP32">
					<dim>1</dim>
					<dim>32</dim>
					<dim>52</dim>
					<dim>52</dim>
				</port>
			</input>
			<output>
				<port id="4" precision="FP32" names="/model.4/Concat_output_0">
					<dim>1</dim>
					<dim>128</dim>
					<dim>52</dim>
					<dim>52</dim>
				</port>
			</output>
		</layer>
		<layer id="284" name="model.4.cv2.conv.weight" type="Const" version="opset1">
			<data element_type="f32" shape="64, 128, 1, 1" offset="250684" size="32768" />
			<output>
				<port id="0" precision="FP32" names="model.4.cv2.conv.weight">
					<dim>64</dim>
					<dim>128</dim>
					<dim>1</dim>
					<dim>1</dim>
				</port>
			</output>
		</layer>
		<layer id="285" name="/model.4/cv2/conv/Conv/WithoutBiases" type="Convolution" version="opset1">
			<data strides="1, 1" dilations="1, 1" pads_begin="0, 0" pads_end="0, 0" auto_pad="explicit" />
			<input>
				<port id="0" precision="FP32">
					<dim>1</dim>
					<dim>128</dim>
					<dim>52</dim>
					<dim>52</dim>
				</port>
				<port id="1" precision="FP32">
					<dim>64</dim>
					<dim>128</dim>
					<dim>1</dim>
					<dim>1</dim>
				</port>
			</input>
			<output>
				<port id="2" precision="FP32">
					<dim>1</dim>
					<dim>64</dim>
					<dim>52</dim>
					<dim>52</dim>
				</port>
			</output>
		</layer>
		<layer id="286" name="Reshape_1016" type="Const" version="opset1">
			<data element_type="f32" shape="1, 64, 1, 1" offset="283452" size="256" />
			<output>
				<port id="0" precision="FP32">
					<dim>1</dim>
					<dim>64</dim>
					<dim>1</dim>
					<dim>1</dim>
				</port>
			</output>
		</layer>
		<layer id="287" name="/model.4/cv2/conv/Conv" type="Add" version="opset1">
			<data auto_broadcast="numpy" />
			<input>
				<port id="0" precision="FP32">
					<dim>1</dim>
					<dim>64</dim>
					<dim>52</dim>
					<dim>52</dim>
				</port>
				<port id="1" precision="FP32">
					<dim>1</dim>
					<dim>64</dim>
					<dim>1</dim>
					<dim>1</dim>
				</port>
			</input>
			<output>
				<port id="2" precision="FP32" names="/model.4/cv2/conv/Conv_output_0">
					<dim>1</dim>
					<dim>64</dim>
					<dim>52</dim>
					<dim>52</dim>
				</port>
			</output>
		</layer>
		<layer id="288" name="/model.4/cv2/act/Mul" type="Swish" version="opset4">
			<input>
				<port id="0" precision="FP32">
					<dim>1</dim>
					<dim>64</dim>
					<dim>52</dim>
					<dim>52</dim>
				</port>
			</input>
			<output>
				<port id="1" precision="FP32" names="/model.4/cv2/act/Mul_output_0">
					<dim>1</dim>
					<dim>64</dim>
					<dim>52</dim>
					<dim>52</dim>
				</port>
			</output>
		</layer>
		<layer id="289" name="model.5.conv.weight" type="Const" version="opset1">
			<data element_type="f32" shape="128, 64, 3, 3" offset="283708" size="294912" />
			<output>
				<port id="0" precision="FP32" names="model.5.conv.weight">
					<dim>128</dim>
					<dim>64</dim>
					<dim>3</dim>
					<dim>3</dim>
				</port>
			</output>
		</layer>
		<layer id="290" name="/model.5/conv/Conv/WithoutBiases" type="Convolution" version="opset1">
			<data strides="2, 2" dilations="1, 1" pads_begin="1, 1" pads_end="1, 1" auto_pad="explicit" />
			<input>
				<port id="0" precision="FP32">
					<dim>1</dim>
					<dim>64</dim>
					<dim>52</dim>
					<dim>52</dim>
				</port>
				<port id="1" precision="FP32">
					<dim>128</dim>
					<dim>64</dim>
					<dim>3</dim>
					<dim>3</dim>
				</port>
			</input>
			<output>
				<port id="2" precision="FP32">
					<dim>1</dim>
					<dim>128</dim>
					<dim>26</dim>
					<dim>26</dim>
				</port>
			</output>
		</layer>
		<layer id="291" name="Reshape_1031" type="Const" version="opset1">
			<data element_type="f32" shape="1, 128, 1, 1" offset="578620" size="512" />
			<output>
				<port id="0" precision="FP32">
					<dim>1</dim>
					<dim>128</dim>
					<dim>1</dim>
					<dim>1</dim>
				</port>
			</output>
		</layer>
		<layer id="292" name="/model.5/conv/Conv" type="Add" version="opset1">
			<data auto_broadcast="numpy" />
			<input>
				<port id="0" precision="FP32">
					<dim>1</dim>
					<dim>128</dim>
					<dim>26</dim>
					<dim>26</dim>
				</port>
				<port id="1" precision="FP32">
					<dim>1</dim>
					<dim>128</dim>
					<dim>1</dim>
					<dim>1</dim>
				</port>
			</input>
			<output>
				<port id="2" precision="FP32" names="/model.5/conv/Conv_output_0">
					<dim>1</dim>
					<dim>128</dim>
					<dim>26</dim>
					<dim>26</dim>
				</port>
			</output>
		</layer>
		<layer id="293" name="/model.5/act/Mul" type="Swish" version="opset4">
			<input>
				<port id="0" precision="FP32">
					<dim>1</dim>
					<dim>128</dim>
					<dim>26</dim>
					<dim>26</dim>
				</port>
			</input>
			<output>
				<port id="1" precision="FP32" names="/model.5/act/Mul_output_0">
					<dim>1</dim>
					<dim>128</dim>
					<dim>26</dim>
					<dim>26</dim>
				</port>
			</output>
		</layer>
		<layer id="294" name="model.6.cv1.conv.weight" type="Const" version="opset1">
			<data element_type="f32" shape="128, 128, 1, 1" offset="579132" size="65536" />
			<output>
				<port id="0" precision="FP32" names="model.6.cv1.conv.weight">
					<dim>128</dim>
					<dim>128</dim>
					<dim>1</dim>
					<dim>1</dim>
				</port>
			</output>
		</layer>
		<layer id="295" name="/model.6/cv1/conv/Conv/WithoutBiases" type="Convolution" version="opset1">
			<data strides="1, 1" dilations="1, 1" pads_begin="0, 0" pads_end="0, 0" auto_pad="explicit" />
			<input>
				<port id="0" precision="FP32">
					<dim>1</dim>
					<dim>128</dim>
					<dim>26</dim>
					<dim>26</dim>
				</port>
				<port id="1" precision="FP32">
					<dim>128</dim>
					<dim>128</dim>
					<dim>1</dim>
					<dim>1</dim>
				</port>
			</input>
			<output>
				<port id="2" precision="FP32">
					<dim>1</dim>
					<dim>128</dim>
					<dim>26</dim>
					<dim>26</dim>
				</port>
			</output>
		</layer>
		<layer id="296" name="Reshape_1046" type="Const" version="opset1">
			<data element_type="f32" shape="1, 128, 1, 1" offset="644668" size="512" />
			<output>
				<port id="0" precision="FP32">
					<dim>1</dim>
					<dim>128</dim>
					<dim>1</dim>
					<dim>1</dim>
				</port>
			</output>
		</layer>
		<layer id="297" name="/model.6/cv1/conv/Conv" type="Add" version="opset1">
			<data auto_broadcast="numpy" />
			<input>
				<port id="0" precision="FP32">
					<dim>1</dim>
					<dim>128</dim>
					<dim>26</dim>
					<dim>26</dim>
				</port>
				<port id="1" precision="FP32">
					<dim>1</dim>
					<dim>128</dim>
					<dim>1</dim>
					<dim>1</dim>
				</port>
			</input>
			<output>
				<port id="2" precision="FP32" names="/model.6/cv1/conv/Conv_output_0">
					<dim>1</dim>
					<dim>128</dim>
					<dim>26</dim>
					<dim>26</dim>
				</port>
			</output>
		</layer>
		<layer id="298" name="/model.6/cv1/act/Mul" type="Swish" version="opset4">
			<input>
				<port id="0" precision="FP32">
					<dim>1</dim>
					<dim>128</dim>
					<dim>26</dim>
					<dim>26</dim>
				</port>
			</input>
			<output>
				<port id="1" precision="FP32" names="/model.6/cv1/act/Mul_output_0">
					<dim>1</dim>
					<dim>128</dim>
					<dim>26</dim>
					<dim>26</dim>
				</port>
			</output>
		</layer>
		<layer id="299" name="Constant_1051" type="Const" version="opset1">
			<data element_type="i64" shape="" offset="52968" size="8" />
			<output>
				<port id="0" precision="I64" />
			</output>
		</layer>
		<layer id="300" name="Constant_1265" type="Const" version="opset1">
			<data element_type="i64" shape="2" offset="645180" size="16" />
			<output>
				<port id="0" precision="I64" names="onnx::Split_807">
					<dim>2</dim>
				</port>
			</output>
		</layer>
		<layer id="301" name="/model.6/Split" type="VariadicSplit" version="opset1">
			<input>
				<port id="0" precision="FP32">
					<dim>1</dim>
					<dim>128</dim>
					<dim>26</dim>
					<dim>26</dim>
				</port>
				<port id="1" precision="I64" />
				<port id="2" precision="I64">
					<dim>2</dim>
				</port>
			</input>
			<output>
				<port id="3" precision="FP32" names="/model.6/Split_output_0">
					<dim>1</dim>
					<dim>64</dim>
					<dim>26</dim>
					<dim>26</dim>
				</port>
				<port id="4" precision="FP32" names="/model.6/Split_output_1">
					<dim>1</dim>
					<dim>64</dim>
					<dim>26</dim>
					<dim>26</dim>
				</port>
			</output>
		</layer>
		<layer id="302" name="model.6.m.0.cv1.conv.weight" type="Const" version="opset1">
			<data element_type="f32" shape="64, 64, 3, 3" offset="645196" size="147456" />
			<output>
				<port id="0" precision="FP32" names="model.6.m.0.cv1.conv.weight">
					<dim>64</dim>
					<dim>64</dim>
					<dim>3</dim>
					<dim>3</dim>
				</port>
			</output>
		</layer>
		<layer id="303" name="/model.6/m.0/cv1/conv/Conv/WithoutBiases" type="Convolution" version="opset1">
			<data strides="1, 1" dilations="1, 1" pads_begin="1, 1" pads_end="1, 1" auto_pad="explicit" />
			<input>
				<port id="0" precision="FP32">
					<dim>1</dim>
					<dim>64</dim>
					<dim>26</dim>
					<dim>26</dim>
				</port>
				<port id="1" precision="FP32">
					<dim>64</dim>
					<dim>64</dim>
					<dim>3</dim>
					<dim>3</dim>
				</port>
			</input>
			<output>
				<port id="2" precision="FP32">
					<dim>1</dim>
					<dim>64</dim>
					<dim>26</dim>
					<dim>26</dim>
				</port>
			</output>
		</layer>
		<layer id="304" name="Reshape_1064" type="Const" version="opset1">
			<data element_type="f32" shape="1, 64, 1, 1" offset="792652" size="256" />
			<output>
				<port id="0" precision="FP32">
					<dim>1</dim>
					<dim>64</dim>
					<dim>1</dim>
					<dim>1</dim>
				</port>
			</output>
		</layer>
		<layer id="305" name="/model.6/m.0/cv1/conv/Conv" type="Add" version="opset1">
			<data auto_broadcast="numpy" />
			<input>
				<port id="0" precision="FP32">
					<dim>1</dim>
					<dim>64</dim>
					<dim>26</dim>
					<dim>26</dim>
				</port>
				<port id="1" precision="FP32">
					<dim>1</dim>
					<dim>64</dim>
					<dim>1</dim>
					<dim>1</dim>
				</port>
			</input>
			<output>
				<port id="2" precision="FP32" names="/model.6/m.0/cv1/conv/Conv_output_0">
					<dim>1</dim>
					<dim>64</dim>
					<dim>26</dim>
					<dim>26</dim>
				</port>
			</output>
		</layer>
		<layer id="306" name="/model.6/m.0/cv1/act/Mul" type="Swish" version="opset4">
			<input>
				<port id="0" precision="FP32">
					<dim>1</dim>
					<dim>64</dim>
					<dim>26</dim>
					<dim>26</dim>
				</port>
			</input>
			<output>
				<port id="1" precision="FP32" names="/model.6/m.0/cv1/act/Mul_output_0">
					<dim>1</dim>
					<dim>64</dim>
					<dim>26</dim>
					<dim>26</dim>
				</port>
			</output>
		</layer>
		<layer id="307" name="/model.6/m.0/cv2/SRU/gn/Constant" type="Const" version="opset1">
			<data element_type="i64" shape="3" offset="62272" size="24" />
			<output>
				<port id="0" precision="I64" names="/model.6/m.0/cv2/SRU/gn/Constant_output_0">
					<dim>3</dim>
				</port>
			</output>
		</layer>
		<layer id="308" name="/model.6/m.0/cv2/SRU/gn/Reshape" type="Reshape" version="opset1">
			<data special_zero="true" />
			<input>
				<port id="0" precision="FP32">
					<dim>1</dim>
					<dim>64</dim>
					<dim>26</dim>
					<dim>26</dim>
				</port>
				<port id="1" precision="I64">
					<dim>3</dim>
				</port>
			</input>
			<output>
				<port id="2" precision="FP32" names="/model.6/m.0/cv2/SRU/gn/Reshape_output_0">
					<dim>1</dim>
					<dim>16</dim>
					<dim>2704</dim>
				</port>
			</output>
		</layer>
		<layer id="309" name="Constant_1071" type="Const" version="opset1">
			<data element_type="i64" shape="3" offset="62296" size="24" />
			<output>
				<port id="0" precision="I64">
					<dim>3</dim>
				</port>
			</output>
		</layer>
		<layer id="310" name="/model.6/m.0/cv2/SRU/gn/ReduceMean" type="ReduceMean" version="opset1">
			<data keep_dims="true" />
			<input>
				<port id="0" precision="FP32">
					<dim>1</dim>
					<dim>16</dim>
					<dim>2704</dim>
				</port>
				<port id="1" precision="I64">
					<dim>3</dim>
				</port>
			</input>
			<output>
				<port id="2" precision="FP32" names="/model.6/m.0/cv2/SRU/gn/ReduceMean_output_0">
					<dim>1</dim>
					<dim>1</dim>
					<dim>1</dim>
				</port>
			</output>
		</layer>
		<layer id="311" name="/model.6/m.0/cv2/SRU/gn/Sub_2" type="Subtract" version="opset1">
			<data auto_broadcast="numpy" />
			<input>
				<port id="0" precision="FP32">
					<dim>1</dim>
					<dim>16</dim>
					<dim>2704</dim>
				</port>
				<port id="1" precision="FP32">
					<dim>1</dim>
					<dim>1</dim>
					<dim>1</dim>
				</port>
			</input>
			<output>
				<port id="2" precision="FP32" names="/model.6/m.0/cv2/SRU/gn/Sub_2_output_0">
					<dim>1</dim>
					<dim>16</dim>
					<dim>2704</dim>
				</port>
			</output>
		</layer>
		<layer id="312" name="Constant_1074" type="Const" version="opset1">
			<data element_type="i64" shape="3" offset="62296" size="24" />
			<output>
				<port id="0" precision="I64">
					<dim>3</dim>
				</port>
			</output>
		</layer>
		<layer id="313" name="/model.6/m.0/cv2/SRU/gn/ReduceMean_1" type="ReduceMean" version="opset1">
			<data keep_dims="true" />
			<input>
				<port id="0" precision="FP32">
					<dim>1</dim>
					<dim>16</dim>
					<dim>2704</dim>
				</port>
				<port id="1" precision="I64">
					<dim>3</dim>
				</port>
			</input>
			<output>
				<port id="2" precision="FP32" names="/model.6/m.0/cv2/SRU/gn/ReduceMean_1_output_0">
					<dim>1</dim>
					<dim>1</dim>
					<dim>1</dim>
				</port>
			</output>
		</layer>
		<layer id="314" name="/model.6/m.0/cv2/SRU/gn/Sub" type="Subtract" version="opset1">
			<data auto_broadcast="numpy" />
			<input>
				<port id="0" precision="FP32">
					<dim>1</dim>
					<dim>16</dim>
					<dim>2704</dim>
				</port>
				<port id="1" precision="FP32">
					<dim>1</dim>
					<dim>1</dim>
					<dim>1</dim>
				</port>
			</input>
			<output>
				<port id="2" precision="FP32" names="/model.6/m.0/cv2/SRU/gn/Sub_output_0">
					<dim>1</dim>
					<dim>16</dim>
					<dim>2704</dim>
				</port>
			</output>
		</layer>
		<layer id="315" name="/model.6/m.0/cv2/SRU/gn/Mul" type="Multiply" version="opset1">
			<data auto_broadcast="numpy" />
			<input>
				<port id="0" precision="FP32">
					<dim>1</dim>
					<dim>16</dim>
					<dim>2704</dim>
				</port>
				<port id="1" precision="FP32">
					<dim>1</dim>
					<dim>16</dim>
					<dim>2704</dim>
				</port>
			</input>
			<output>
				<port id="2" precision="FP32" names="/model.6/m.0/cv2/SRU/gn/Mul_output_0">
					<dim>1</dim>
					<dim>16</dim>
					<dim>2704</dim>
				</port>
			</output>
		</layer>
		<layer id="316" name="Constant_1084" type="Const" version="opset1">
			<data element_type="i64" shape="3" offset="62296" size="24" />
			<output>
				<port id="0" precision="I64">
					<dim>3</dim>
				</port>
			</output>
		</layer>
		<layer id="317" name="/model.6/m.0/cv2/SRU/gn/ReduceMean_2" type="ReduceMean" version="opset1">
			<data keep_dims="true" />
			<input>
				<port id="0" precision="FP32">
					<dim>1</dim>
					<dim>16</dim>
					<dim>2704</dim>
				</port>
				<port id="1" precision="I64">
					<dim>3</dim>
				</port>
			</input>
			<output>
				<port id="2" precision="FP32" names="/model.6/m.0/cv2/SRU/gn/ReduceMean_2_output_0">
					<dim>1</dim>
					<dim>1</dim>
					<dim>1</dim>
				</port>
			</output>
		</layer>
		<layer id="318" name="/model.6/m.0/cv2/SRU/gn/Shape" type="ShapeOf" version="opset3">
			<data output_type="i64" />
			<input>
				<port id="0" precision="FP32">
					<dim>1</dim>
					<dim>16</dim>
					<dim>2704</dim>
				</port>
			</input>
			<output>
				<port id="1" precision="I64" names="/model.6/m.0/cv2/SRU/gn/Shape_output_0">
					<dim>3</dim>
				</port>
			</output>
		</layer>
		<layer id="319" name="/model.6/m.0/cv2/SRU/gn/Constant_3" type="Const" version="opset1">
			<data element_type="i64" shape="1" offset="62320" size="8" />
			<output>
				<port id="0" precision="I64" names="/model.6/m.0/cv2/SRU/gn/Constant_3_output_0">
					<dim>1</dim>
				</port>
			</output>
		</layer>
		<layer id="320" name="Constant_1078" type="Const" version="opset1">
			<data element_type="i64" shape="" offset="62328" size="8" />
			<output>
				<port id="0" precision="I64" />
			</output>
		</layer>
		<layer id="321" name="/model.6/m.0/cv2/SRU/gn/Gather" type="Gather" version="opset8">
			<data batch_dims="0" />
			<input>
				<port id="0" precision="I64">
					<dim>3</dim>
				</port>
				<port id="1" precision="I64">
					<dim>1</dim>
				</port>
				<port id="2" precision="I64" />
			</input>
			<output>
				<port id="3" precision="I64" names="/model.6/m.0/cv2/SRU/gn/Gather_output_0">
					<dim>1</dim>
				</port>
			</output>
		</layer>
		<layer id="322" name="Constant_1080" type="Const" version="opset1">
			<data element_type="i64" shape="1" offset="62328" size="8" />
			<output>
				<port id="0" precision="I64">
					<dim>1</dim>
				</port>
			</output>
		</layer>
		<layer id="323" name="/model.6/m.0/cv2/SRU/gn/ReduceProd" type="ReduceProd" version="opset1">
			<data keep_dims="false" />
			<input>
				<port id="0" precision="I64">
					<dim>1</dim>
				</port>
				<port id="1" precision="I64">
					<dim>1</dim>
				</port>
			</input>
			<output>
				<port id="2" precision="I64" names="/model.6/m.0/cv2/SRU/gn/ReduceProd_output_0" />
			</output>
		</layer>
		<layer id="324" name="/model.6/m.0/cv2/SRU/gn/Cast" type="Convert" version="opset1">
			<data destination_type="f32" />
			<input>
				<port id="0" precision="I64" />
			</input>
			<output>
				<port id="1" precision="FP32" names="/model.6/m.0/cv2/SRU/gn/Cast_output_0" />
			</output>
		</layer>
		<layer id="325" name="/model.6/m.0/cv2/SRU/gn/Mul_1" type="Multiply" version="opset1">
			<data auto_broadcast="numpy" />
			<input>
				<port id="0" precision="FP32">
					<dim>1</dim>
					<dim>1</dim>
					<dim>1</dim>
				</port>
				<port id="1" precision="FP32" />
			</input>
			<output>
				<port id="2" precision="FP32" names="/model.6/m.0/cv2/SRU/gn/Mul_1_output_0">
					<dim>1</dim>
					<dim>1</dim>
					<dim>1</dim>
				</port>
			</output>
		</layer>
		<layer id="326" name="Constant_9348" type="Const" version="opset1">
			<data element_type="f32" shape="" offset="62336" size="4" />
			<output>
				<port id="0" precision="FP32" />
			</output>
		</layer>
		<layer id="327" name="/model.6/m.0/cv2/SRU/gn/Sub_1" type="Add" version="opset1">
			<data auto_broadcast="numpy" />
			<input>
				<port id="0" precision="FP32" />
				<port id="1" precision="FP32" />
			</input>
			<output>
				<port id="2" precision="FP32" names="/model.6/m.0/cv2/SRU/gn/Sub_1_output_0" />
			</output>
		</layer>
		<layer id="328" name="/model.6/m.0/cv2/SRU/gn/Div" type="Divide" version="opset1">
			<data auto_broadcast="numpy" m_pythondiv="true" />
			<input>
				<port id="0" precision="FP32">
					<dim>1</dim>
					<dim>1</dim>
					<dim>1</dim>
				</port>
				<port id="1" precision="FP32" />
			</input>
			<output>
				<port id="2" precision="FP32" names="/model.6/m.0/cv2/SRU/gn/Div_output_0">
					<dim>1</dim>
					<dim>1</dim>
					<dim>1</dim>
				</port>
			</output>
		</layer>
		<layer id="329" name="/model.6/m.0/cv2/SRU/gn/Sqrt" type="Sqrt" version="opset1">
			<input>
				<port id="0" precision="FP32">
					<dim>1</dim>
					<dim>1</dim>
					<dim>1</dim>
				</port>
			</input>
			<output>
				<port id="1" precision="FP32" names="/model.6/m.0/cv2/SRU/gn/Sqrt_output_0">
					<dim>1</dim>
					<dim>1</dim>
					<dim>1</dim>
				</port>
			</output>
		</layer>
		<layer id="330" name="Constant_9477" type="Const" version="opset1">
			<data element_type="f32" shape="1, 1, 1" offset="62340" size="4" />
			<output>
				<port id="0" precision="FP32">
					<dim>1</dim>
					<dim>1</dim>
					<dim>1</dim>
				</port>
			</output>
		</layer>
		<layer id="331" name="/model.6/m.0/cv2/SRU/gn/Add" type="Add" version="opset1">
			<data auto_broadcast="numpy" />
			<input>
				<port id="0" precision="FP32">
					<dim>1</dim>
					<dim>1</dim>
					<dim>1</dim>
				</port>
				<port id="1" precision="FP32">
					<dim>1</dim>
					<dim>1</dim>
					<dim>1</dim>
				</port>
			</input>
			<output>
				<port id="2" precision="FP32" names="/model.6/m.0/cv2/SRU/gn/Add_output_0">
					<dim>1</dim>
					<dim>1</dim>
					<dim>1</dim>
				</port>
			</output>
		</layer>
		<layer id="332" name="/model.6/m.0/cv2/SRU/gn/Div_1" type="Divide" version="opset1">
			<data auto_broadcast="numpy" m_pythondiv="true" />
			<input>
				<port id="0" precision="FP32">
					<dim>1</dim>
					<dim>16</dim>
					<dim>2704</dim>
				</port>
				<port id="1" precision="FP32">
					<dim>1</dim>
					<dim>1</dim>
					<dim>1</dim>
				</port>
			</input>
			<output>
				<port id="2" precision="FP32" names="/model.6/m.0/cv2/SRU/gn/Div_1_output_0">
					<dim>1</dim>
					<dim>16</dim>
					<dim>2704</dim>
				</port>
			</output>
		</layer>
		<layer id="333" name="/model.6/m.0/cv2/SRU/gn/Constant_6" type="Const" version="opset1">
			<data element_type="i64" shape="4" offset="792908" size="32" />
			<output>
				<port id="0" precision="I64" names="/model.6/m.0/cv2/SRU/gn/Constant_6_output_0">
					<dim>4</dim>
				</port>
			</output>
		</layer>
		<layer id="334" name="/model.6/m.0/cv2/SRU/gn/Reshape_1" type="Reshape" version="opset1">
			<data special_zero="true" />
			<input>
				<port id="0" precision="FP32">
					<dim>1</dim>
					<dim>16</dim>
					<dim>2704</dim>
				</port>
				<port id="1" precision="I64">
					<dim>4</dim>
				</port>
			</input>
			<output>
				<port id="2" precision="FP32" names="/model.6/m.0/cv2/SRU/gn/Reshape_1_output_0">
					<dim>1</dim>
					<dim>64</dim>
					<dim>26</dim>
					<dim>26</dim>
				</port>
			</output>
		</layer>
		<layer id="335" name="Constant_9478" type="Const" version="opset1">
			<data element_type="f32" shape="1, 64, 1, 1" offset="792940" size="256" />
			<output>
				<port id="0" precision="FP32">
					<dim>1</dim>
					<dim>64</dim>
					<dim>1</dim>
					<dim>1</dim>
				</port>
			</output>
		</layer>
		<layer id="336" name="/model.6/m.0/cv2/SRU/Mul" type="Multiply" version="opset1">
			<data auto_broadcast="numpy" />
…
		<edge from-layer="518" from-port="1" to-layer="530" to-port="0" />
		<edge from-layer="518" from-port="1" to-layer="522" to-port="0" />
		<edge from-layer="518" from-port="1" to-layer="520" to-port="0" />
		<edge from-layer="519" from-port="0" to-layer="520" to-port="1" />
		<edge from-layer="520" from-port="2" to-layer="523" to-port="0" />
		<edge from-layer="521" from-port="0" to-layer="522" to-port="1" />
		<edge from-layer="522" from-port="2" to-layer="523" to-port="1" />
		<edge from-layer="523" from-port="2" to-layer="524" to-port="0" />
		<edge from-layer="524" from-port="1" to-layer="525" to-port="0" />
		<edge from-layer="525" from-port="2" to-layer="528" to-port="0" />
		<edge from-layer="526" from-port="0" to-layer="528" to-port="1" />
		<edge from-layer="527" from-port="0" to-layer="528" to-port="2" />
		<edge from-layer="528" from-port="3" to-layer="536" to-port="0" />
		<edge from-layer="528" from-port="4" to-layer="537" to-port="0" />
		<edge from-layer="529" from-port="0" to-layer="530" to-port="1" />
		<edge from-layer="530" from-port="2" to-layer="531" to-port="0" />
		<edge from-layer="531" from-port="1" to-layer="532" to-port="0" />
		<edge from-layer="532" from-port="2" to-layer="535" to-port="0" />
		<edge from-layer="533" from-port="0" to-layer="535" to-port="1" />
		<edge from-layer="534" from-port="0" to-layer="535" to-port="2" />
		<edge from-layer="535" from-port="4" to-layer="536" to-port="1" />
		<edge from-layer="535" from-port="3" to-layer="537" to-port="1" />
		<edge from-layer="536" from-port="2" to-layer="538" to-port="0" />
		<edge from-layer="537" from-port="2" to-layer="538" to-port="1" />
		<edge from-layer="538" from-port="2" to-layer="540" to-port="0" />
		<edge from-layer="539" from-port="0" to-layer="540" to-port="1" />
		<edge from-layer="540" from-port="4" to-layer="551" to-port="0" />
		<edge from-layer="540" from-port="3" to-layer="542" to-port="0" />
		<edge from-layer="541" from-port="0" to-layer="542" to-port="1" />
		<edge from-layer="542" from-port="2" to-layer="548" to-port="0" />
		<edge from-layer="542" from-port="2" to-layer="544" to-port="0" />
		<edge from-layer="543" from-port="0" to-layer="544" to-port="1" />
		<edge from-layer="544" from-port="2" to-layer="546" to-port="0" />
		<edge from-layer="545" from-port="0" to-layer="546" to-port="1" />
		<edge from-layer="546" from-port="2" to-layer="549" to-port="0" />
		<edge from-layer="547" from-port="0" to-layer="548" to-port="1" />
		<edge from-layer="548" from-port="2" to-layer="549" to-port="1" />
		<edge from-layer="549" from-port="2" to-layer="554" to-port="0" />
		<edge from-layer="550" from-port="0" to-layer="551" to-port="1" />
		<edge from-layer="551" from-port="2" to-layer="554" to-port="2" />
		<edge from-layer="551" from-port="2" to-layer="553" to-port="0" />
		<edge from-layer="552" from-port="0" to-layer="553" to-port="1" />
		<edge from-layer="553" from-port="2" to-layer="554" to-port="1" />
		<edge from-layer="554" from-port="3" to-layer="556" to-port="0" />
		<edge from-layer="554" from-port="3" to-layer="558" to-port="1" />
		<edge from-layer="555" from-port="0" to-layer="556" to-port="1" />
		<edge from-layer="556" from-port="2" to-layer="557" to-port="0" />
		<edge from-layer="557" from-port="1" to-layer="558" to-port="0" />
		<edge from-layer="558" from-port="2" to-layer="561" to-port="0" />
		<edge from-layer="559" from-port="0" to-layer="561" to-port="1" />
		<edge from-layer="560" from-port="0" to-layer="561" to-port="2" />
		<edge from-layer="561" from-port="3" to-layer="562" to-port="0" />
		<edge from-layer="561" from-port="4" to-layer="562" to-port="1" />
		<edge from-layer="562" from-port="2" to-layer="563" to-port="1" />
		<edge from-layer="563" from-port="2" to-layer="564" to-port="2" />
		<edge from-layer="564" from-port="3" to-layer="566" to-port="0" />
		<edge from-layer="565" from-port="0" to-layer="566" to-port="1" />
		<edge from-layer="566" from-port="2" to-layer="568" to-port="0" />
		<edge from-layer="567" from-port="0" to-layer="568" to-port="1" />
		<edge from-layer="568" from-port="2" to-layer="569" to-port="0" />
		<edge from-layer="569" from-port="1" to-layer="571" to-port="0" />
		<edge from-layer="570" from-port="0" to-layer="571" to-port="1" />
		<edge from-layer="571" from-port="2" to-layer="573" to-port="0" />
		<edge from-layer="572" from-port="0" to-layer="573" to-port="1" />
		<edge from-layer="573" from-port="2" to-layer="574" to-port="0" />
		<edge from-layer="574" from-port="1" to-layer="578" to-port="0" />
		<edge from-layer="574" from-port="1" to-layer="575" to-port="0" />
		<edge from-layer="575" from-port="1" to-layer="578" to-port="1" />
		<edge from-layer="575" from-port="1" to-layer="576" to-port="0" />
		<edge from-layer="576" from-port="1" to-layer="578" to-port="2" />
		<edge from-layer="576" from-port="1" to-layer="577" to-port="0" />
		<edge from-layer="577" from-port="1" to-layer="578" to-port="3" />
		<edge from-layer="578" from-port="4" to-layer="580" to-port="0" />
		<edge from-layer="579" from-port="0" to-layer="580" to-port="1" />
		<edge from-layer="580" from-port="2" to-layer="582" to-port="0" />
		<edge from-layer="581" from-port="0" to-layer="582" to-port="1" />
		<edge from-layer="582" from-port="2" to-layer="583" to-port="0" />
		<edge from-layer="583" from-port="1" to-layer="585" to-port="0" />
		<edge from-layer="583" from-port="1" to-layer="942" to-port="1" />
		<edge from-layer="584" from-port="0" to-layer="585" to-port="1" />
		<edge from-layer="585" from-port="2" to-layer="586" to-port="0" />
		<edge from-layer="586" from-port="2" to-layer="588" to-port="0" />
		<edge from-layer="587" from-port="0" to-layer="588" to-port="1" />
		<edge from-layer="588" from-port="2" to-layer="590" to-port="0" />
		<edge from-layer="589" from-port="0" to-layer="590" to-port="1" />
		<edge from-layer="590" from-port="2" to-layer="591" to-port="0" />
		<edge from-layer="591" from-port="1" to-layer="593" to-port="0" />
		<edge from-layer="592" from-port="0" to-layer="593" to-port="1" />
		<edge from-layer="593" from-port="3" to-layer="674" to-port="0" />
		<edge from-layer="593" from-port="4" to-layer="674" to-port="1" />
		<edge from-layer="593" from-port="4" to-layer="595" to-port="0" />
		<edge from-layer="594" from-port="0" to-layer="595" to-port="1" />
		<edge from-layer="595" from-port="2" to-layer="597" to-port="0" />
		<edge from-layer="596" from-port="0" to-layer="597" to-port="1" />
		<edge from-layer="597" from-port="2" to-layer="598" to-port="0" />
		<edge from-layer="598" from-port="1" to-layer="600" to-port="0" />
		<edge from-layer="598" from-port="1" to-layer="643" to-port="1" />
		<edge from-layer="598" from-port="1" to-layer="636" to-port="1" />
		<edge from-layer="599" from-port="0" to-layer="600" to-port="1" />
		<edge from-layer="600" from-port="2" to-layer="605" to-port="0" />
		<edge from-layer="600" from-port="2" to-layer="606" to-port="0" />
		<edge from-layer="600" from-port="2" to-layer="610" to-port="0" />
		<edge from-layer="600" from-port="2" to-layer="602" to-port="0" />
		<edge from-layer="600" from-port="2" to-layer="603" to-port="0" />
		<edge from-layer="601" from-port="0" to-layer="602" to-port="1" />
		<edge from-layer="602" from-port="2" to-layer="603" to-port="1" />
		<edge from-layer="603" from-port="2" to-layer="624" to-port="0" />
		<edge from-layer="604" from-port="0" to-layer="605" to-port="1" />
		<edge from-layer="605" from-port="2" to-layer="606" to-port="1" />
		<edge from-layer="606" from-port="2" to-layer="607" to-port="0" />
		<edge from-layer="606" from-port="2" to-layer="607" to-port="1" />
		<edge from-layer="607" from-port="2" to-layer="609" to-port="0" />
		<edge from-layer="608" from-port="0" to-layer="609" to-port="1" />
		<edge from-layer="609" from-port="2" to-layer="617" to-port="0" />
		<edge from-layer="610" from-port="1" to-layer="613" to-port="0" />
		<edge from-layer="611" from-port="0" to-layer="613" to-port="1" />
		<edge from-layer="612" from-port="0" to-layer="613" to-port="2" />
		<edge from-layer="613" from-port="3" to-layer="615" to-port="0" />
		<edge from-layer="614" from-port="0" to-layer="615" to-port="1" />
		<edge from-layer="615" from-port="2" to-layer="616" to-port="0" />
		<edge from-layer="616" from-port="1" to-layer="617" to-port="1" />
		<edge from-layer="616" from-port="1" to-layer="619" to-port="0" />
		<edge from-layer="617" from-port="2" to-layer="620" to-port="0" />
		<edge from-layer="618" from-port="0" to-layer="619" to-port="1" />
		<edge from-layer="619" from-port="2" to-layer="620" to-port="1" />
		<edge from-layer="620" from-port="2" to-layer="621" to-port="0" />
		<edge from-layer="621" from-port="1" to-layer="623" to-port="0" />
		<edge from-layer="622" from-port="0" to-layer="623" to-port="1" />
		<edge from-layer="623" from-port="2" to-layer="624" to-port="1" />
		<edge from-layer="624" from-port="2" to-layer="626" to-port="0" />
		<edge from-layer="625" from-port="0" to-layer="626" to-port="1" />
		<edge from-layer="626" from-port="2" to-layer="628" to-port="0" />
		<edge from-layer="627" from-port="0" to-layer="628" to-port="1" />
		<edge from-layer="628" from-port="2" to-layer="629" to-port="0" />
		<edge from-layer="629" from-port="1" to-layer="631" to-port="0" />
		<edge from-layer="629" from-port="1" to-layer="641" to-port="0" />
		<edge from-layer="629" from-port="1" to-layer="633" to-port="0" />
		<edge from-layer="630" from-port="0" to-layer="631" to-port="1" />
		<edge from-layer="631" from-port="2" to-layer="634" to-port="0" />
		<edge from-layer="632" from-port="0" to-layer="633" to-port="1" />
		<edge from-layer="633" from-port="2" to-layer="634" to-port="1" />
		<edge from-layer="634" from-port="2" to-layer="635" to-port="0" />
		<edge from-layer="635" from-port="1" to-layer="636" to-port="0" />
		<edge from-layer="636" from-port="2" to-layer="639" to-port="0" />
		<edge from-layer="637" from-port="0" to-layer="639" to-port="1" />
		<edge from-layer="638" from-port="0" to-layer="639" to-port="2" />
		<edge from-layer="639" from-port="3" to-layer="647" to-port="0" />
		<edge from-layer="639" from-port="4" to-layer="648" to-port="0" />
		<edge from-layer="640" from-port="0" to-layer="641" to-port="1" />
		<edge from-layer="641" from-port="2" to-layer="642" to-port="0" />
		<edge from-layer="642" from-port="1" to-layer="643" to-port="0" />
		<edge from-layer="643" from-port="2" to-layer="646" to-port="0" />
		<edge from-layer="644" from-port="0" to-layer="646" to-port="1" />
		<edge from-layer="645" from-port="0" to-layer="646" to-port="2" />
		<edge from-layer="646" from-port="3" to-layer="648" to-port="1" />
		<edge from-layer="646" from-port="4" to-layer="647" to-port="1" />
		<edge from-layer="647" from-port="2" to-layer="649" to-port="0" />
		<edge from-layer="648" from-port="2" to-layer="649" to-port="1" />
		<edge from-layer="649" from-port="2" to-layer="651" to-port="0" />
		<edge from-layer="650" from-port="0" to-layer="651" to-port="1" />
		<edge from-layer="651" from-port="4" to-layer="662" to-port="0" />
		<edge from-layer="651" from-port="3" to-layer="653" to-port="0" />
		<edge from-layer="652" from-port="0" to-layer="653" to-port="1" />
		<edge from-layer="653" from-port="2" to-layer="655" to-port="0" />
		<edge from-layer="653" from-port="2" to-layer="659" to-port="0" />
		<edge from-layer="654" from-port="0" to-layer="655" to-port="1" />
		<edge from-layer="655" from-port="2" to-layer="657" to-port="0" />
		<edge from-layer="656" from-port="0" to-layer="657" to-port="1" />
		<edge from-layer="657" from-port="2" to-layer="660" to-port="0" />
		<edge from-layer="658" from-port="0" to-layer="659" to-port="1" />
		<edge from-layer="659" from-port="2" to-layer="660" to-port="1" />
		<edge from-layer="660" from-port="2" to-layer="665" to-port="0" />
		<edge from-layer="661" from-port="0" to-layer="662" to-port="1" />
		<edge from-layer="662" from-port="2" to-layer="665" to-port="2" />
		<edge from-layer="662" from-port="2" to-layer="664" to-port="0" />
		<edge from-layer="663" from-port="0" to-layer="664" to-port="1" />
		<edge from-layer="664" from-port="2" to-layer="665" to-port="1" />
		<edge from-layer="665" from-port="3" to-layer="669" to-port="1" />
		<edge from-layer="665" from-port="3" to-layer="667" to-port="0" />
		<edge from-layer="666" from-port="0" to-layer="667" to-port="1" />
		<edge from-layer="667" from-port="2" to-layer="668" to-port="0" />
		<edge from-layer="668" from-port="1" to-layer="669" to-port="0" />
		<edge from-layer="669" from-port="2" to-layer="672" to-port="0" />
		<edge from-layer="670" from-port="0" to-layer="672" to-port="1" />
		<edge from-layer="671" from-port="0" to-layer="672" to-port="2" />
		<edge from-layer="672" from-port="3" to-layer="673" to-port="0" />
		<edge from-layer="672" from-port="4" to-layer="673" to-port="1" />
		<edge from-layer="673" from-port="2" to-layer="674" to-port="2" />
		<edge from-layer="674" from-port="3" to-layer="676" to-port="0" />
		<edge from-layer="675" from-port="0" to-layer="676" to-port="1" />
		<edge from-layer="676" from-port="2" to-layer="678" to-port="0" />
		<edge from-layer="677" from-port="0" to-layer="678" to-port="1" />
		<edge from-layer="678" from-port="2" to-layer="679" to-port="0" />
		<edge from-layer="679" from-port="1" to-layer="681" to-port="0" />
		<edge from-layer="679" from-port="1" to-layer="812" to-port="1" />
		<edge from-layer="680" from-port="0" to-layer="681" to-port="1" />
		<edge from-layer="681" from-port="2" to-layer="682" to-port="0" />
		<edge from-layer="682" from-port="2" to-layer="684" to-port="0" />
		<edge from-layer="683" from-port="0" to-layer="684" to-port="1" />
		<edge from-layer="684" from-port="2" to-layer="686" to-port="0" />
		<edge from-layer="685" from-port="0" to-layer="686" to-port="1" />
		<edge from-layer="686" from-port="2" to-layer="687" to-port="0" />
		<edge from-layer="687" from-port="1" to-layer="689" to-port="0" />
		<edge from-layer="688" from-port="0" to-layer="689" to-port="1" />
		<edge from-layer="689" from-port="4" to-layer="691" to-port="0" />
		<edge from-layer="689" from-port="4" to-layer="770" to-port="1" />
		<edge from-layer="689" from-port="3" to-layer="770" to-port="0" />
		<edge from-layer="690" from-port="0" to-layer="691" to-port="1" />
		<edge from-layer="691" from-port="2" to-layer="693" to-port="0" />
		<edge from-layer="692" from-port="0" to-layer="693" to-port="1" />
		<edge from-layer="693" from-port="2" to-layer="694" to-port="0" />
		<edge from-layer="694" from-port="1" to-layer="696" to-port="0" />
		<edge from-layer="694" from-port="1" to-layer="739" to-port="1" />
		<edge from-layer="694" from-port="1" to-layer="732" to-port="1" />
		<edge from-layer="695" from-port="0" to-layer="696" to-port="1" />
		<edge from-layer="696" from-port="2" to-layer="698" to-port="0" />
		<edge from-layer="696" from-port="2" to-layer="699" to-port="0" />
		<edge from-layer="696" from-port="2" to-layer="701" to-port="0" />
		<edge from-layer="696" from-port="2" to-layer="702" to-port="0" />
		<edge from-layer="696" from-port="2" to-layer="706" to-port="0" />
		<edge from-layer="697" from-port="0" to-layer="698" to-port="1" />
		<edge from-layer="698" from-port="2" to-layer="699" to-port="1" />
		<edge from-layer="699" from-port="2" to-layer="720" to-port="0" />
		<edge from-layer="700" from-port="0" to-layer="701" to-port="1" />
		<edge from-layer="701" from-port="2" to-layer="702" to-port="1" />
		<edge from-layer="702" from-port="2" to-layer="703" to-port="0" />
		<edge from-layer="702" from-port="2" to-layer="703" to-port="1" />
		<edge from-layer="703" from-port="2" to-layer="705" to-port="0" />
		<edge from-layer="704" from-port="0" to-layer="705" to-port="1" />
		<edge from-layer="705" from-port="2" to-layer="713" to-port="0" />
		<edge from-layer="706" from-port="1" to-layer="709" to-port="0" />
		<edge from-layer="707" from-port="0" to-layer="709" to-port="1" />
		<edge from-layer="708" from-port="0" to-layer="709" to-port="2" />
		<edge from-layer="709" from-port="3" to-layer="711" to-port="0" />
		<edge from-layer="710" from-port="0" to-layer="711" to-port="1" />
		<edge from-layer="711" from-port="2" to-layer="712" to-port="0" />
		<edge from-layer="712" from-port="1" to-layer="715" to-port="0" />
		<edge from-layer="712" from-port="1" to-layer="713" to-port="1" />
		<edge from-layer="713" from-port="2" to-layer="716" to-port="0" />
		<edge from-layer="714" from-port="0" to-layer="715" to-port="1" />
		<edge from-layer="715" from-port="2" to-layer="716" to-port="1" />
		<edge from-layer="716" from-port="2" to-layer="717" to-port="0" />
		<edge from-layer="717" from-port="1" to-layer="719" to-port="0" />
		<edge from-layer="718" from-port="0" to-layer="719" to-port="1" />
		<edge from-layer="719" from-port="2" to-layer="720" to-port="1" />
		<edge from-layer="720" from-port="2" to-layer="722" to-port="0" />
		<edge from-layer="721" from-port="0" to-layer="722" to-port="1" />
		<edge from-layer="722" from-port="2" to-layer="724" to-port="0" />
		<edge from-layer="723" from-port="0" to-layer="724" to-port="1" />
		<edge from-layer="724" from-port="2" to-layer="725" to-port="0" />
		<edge from-layer="725" from-port="1" to-layer="737" to-port="0" />
		<edge from-layer="725" from-port="1" to-layer="729" to-port="0" />
		<edge from-layer="725" from-port="1" to-layer="727" to-port="0" />
		<edge from-layer="726" from-port="0" to-layer="727" to-port="1" />
		<edge from-layer="727" from-port="2" to-layer="730" to-port="0" />
		<edge from-layer="728" from-port="0" to-layer="729" to-port="1" />
		<edge from-layer="729" from-port="2" to-layer="730" to-port="1" />
		<edge from-layer="730" from-port="2" to-layer="731" to-port="0" />
		<edge from-layer="731" from-port="1" to-layer="732" to-port="0" />
		<edge from-layer="732" from-port="2" to-layer="735" to-port="0" />
		<edge from-layer="733" from-port="0" to-layer="735" to-port="1" />
		<edge from-layer="734" from-port="0" to-layer="735" to-port="2" />
		<edge from-layer="735" from-port="3" to-layer="743" to-port="0" />
		<edge from-layer="735" from-port="4" to-layer="744" to-port="0" />
		<edge from-layer="736" from-port="0" to-layer="737" to-port="1" />
		<edge from-layer="737" from-port="2" to-layer="738" to-port="0" />
		<edge from-layer="738" from-port="1" to-layer="739" to-port="0" />
		<edge from-layer="739" from-port="2" to-layer="742" to-port="0" />
		<edge from-layer="740" from-port="0" to-layer="742" to-port="1" />
		<edge from-layer="741" from-port="0" to-layer="742" to-port="2" />
		<edge from-layer="742" from-port="3" to-layer="744" to-port="1" />
		<edge from-layer="742" from-port="4" to-layer="743" to-port="1" />
		<edge from-layer="743" from-port="2" to-layer="745" to-port="0" />
		<edge from-layer="744" from-port="2" to-layer="745" to-port="1" />
		<edge from-layer="745" from-port="2" to-layer="747" to-port="0" />
		<edge from-layer="746" from-port="0" to-layer="747" to-port="1" />
		<edge from-layer="747" from-port="3" to-layer="749" to-port="0" />
		<edge from-layer="747" from-port="4" to-layer="758" to-port="0" />
		<edge from-layer="748" from-port="0" to-layer="749" to-port="1" />
		<edge from-layer="749" from-port="2" to-layer="751" to-port="0" />
		<edge from-layer="749" from-port="2" to-layer="755" to-port="0" />
		<edge from-layer="750" from-port="0" to-layer="751" to-port="1" />
		<edge from-layer="751" from-port="2" to-layer="753" to-port="0" />
		<edge from-layer="752" from-port="0" to-layer="753" to-port="1" />
		<edge from-layer="753" from-port="2" to-layer="756" to-port="0" />
		<edge from-layer="754" from-port="0" to-layer="755" to-port="1" />
		<edge from-layer="755" from-port="2" to-layer="756" to-port="1" />
		<edge from-layer="756" from-port="2" to-layer="761" to-port="0" />
		<edge from-layer="757" from-port="0" to-layer="758" to-port="1" />
		<edge from-layer="758" from-port="2" to-layer="761" to-port="2" />
		<edge from-layer="758" from-port="2" to-layer="760" to-port="0" />
		<edge from-layer="759" from-port="0" to-layer="760" to-port="1" />
		<edge from-layer="760" from-port="2" to-layer="761" to-port="1" />
		<edge from-layer="761" from-port="3" to-layer="765" to-port="1" />
		<edge from-layer="761" from-port="3" to-layer="763" to-port="0" />
		<edge from-layer="762" from-port="0" to-layer="763" to-port="1" />
		<edge from-layer="763" from-port="2" to-layer="764" to-port="0" />
		<edge from-layer="764" from-port="1" to-layer="765" to-port="0" />
		<edge from-layer="765" from-port="2" to-layer="768" to-port="0" />
		<edge from-layer="766" from-port="0" to-layer="768" to-port="1" />
		<edge from-layer="767" from-port="0" to-layer="768" to-port="2" />
		<edge from-layer="768" from-port="3" to-layer="769" to-port="0" />
		<edge from-layer="768" from-port="4" to-layer="769" to-port="1" />
		<edge from-layer="769" from-port="2" to-layer="770" to-port="2" />
		<edge from-layer="770" from-port="3" to-layer="772" to-port="0" />
		<edge from-layer="771" from-port="0" to-layer="772" to-port="1" />
		<edge from-layer="772" from-port="2" to-layer="774" to-port="0" />
		<edge from-layer="773" from-port="0" to-layer="774" to-port="1" />
		<edge from-layer="774" from-port="2" to-layer="775" to-port="0" />
		<edge from-layer="775" from-port="1" to-layer="777" to-port="0" />
		<edge from-layer="775" from-port="1" to-layer="808" to-port="0" />
		<edge from-layer="775" from-port="1" to-layer="791" to-port="0" />
		<edge from-layer="776" from-port="0" to-layer="777" to-port="1" />
		<edge from-layer="777" from-port="2" to-layer="779" to-port="0" />
		<edge from-layer="778" from-port="0" to-layer="779" to-port="1" />
		<edge from-layer="779" from-port="2" to-layer="780" to-port="0" />
		<edge from-layer="780" from-port="1" to-layer="782" to-port="0" />
		<edge from-layer="781" from-port="0" to-layer="782" to-port="1" />
		<edge from-layer="782" from-port="2" to-layer="784" to-port="0" />
		<edge from-layer="783" from-port="0" to-layer="784" to-port="1" />
		<edge from-layer="784" from-port="2" to-layer="785" to-port="0" />
		<edge from-layer="785" from-port="1" to-layer="787" to-port="0" />
		<edge from-layer="786" from-port="0" to-layer="787" to-port="1" />
		<edge from-layer="787" from-port="2" to-layer="789" to-port="0" />
		<edge from-layer="788" from-port="0" to-layer="789" to-port="1" />
		<edge from-layer="789" from-port="2" to-layer="804" to-port="0" />
		<edge from-layer="790" from-port="0" to-layer="791" to-port="1" />
		<edge from-layer="791" from-port="2" to-layer="793" to-port="0" />
		<edge from-layer="792" from-port="0" to-layer="793" to-port="1" />
		<edge from-layer="793" from-port="2" to-layer="794" to-port="0" />
		<edge from-layer="794" from-port="1" to-layer="796" to-port="0" />
		<edge from-layer="795" from-port="0" to-layer="796" to-port="1" />
		<edge from-layer="796" from-port="2" to-layer="798" to-port="0" />
		<edge from-layer="797" from-port="0" to-layer="798" to-port="1" />
		<edge from-layer="798" from-port="2" to-layer="799" to-port="0" />
		<edge from-layer="799" from-port="1" to-layer="801" to-port="0" />
		<edge from-layer="800" from-port="0" to-layer="801" to-port="1" />
		<edge from-layer="801" from-port="2" to-layer="803" to-port="0" />
		<edge from-layer="802" from-port="0" to-layer="803" to-port="1" />
		<edge from-layer="803" from-port="2" to-layer="804" to-port="1" />
		<edge from-layer="804" from-port="2" to-layer="806" to-port="0" />
		<edge from-layer="805" from-port="0" to-layer="806" to-port="1" />
		<edge from-layer="806" from-port="2" to-layer="1067" to-port="0" />
		<edge from-layer="807" from-port="0" to-layer="808" to-port="1" />
		<edge from-layer="808" from-port="2" to-layer="810" to-port="0" />
		<edge from-layer="809" from-port="0" to-layer="810" to-port="1" />
		<edge from-layer="810" from-port="2" to-layer="811" to-port="0" />
		<edge from-layer="811" from-port="1" to-layer="812" to-port="0" />
		<edge from-layer="812" from-port="2" to-layer="814" to-port="0" />
		<edge from-layer="813" from-port="0" to-layer="814" to-port="1" />
		<edge from-layer="814" from-port="2" to-layer="816" to-port="0" />
		<edge from-layer="815" from-port="0" to-layer="816" to-port="1" />
		<edge from-layer="816" from-port="2" to-layer="817" to-port="0" />
		<edge from-layer="817" from-port="1" to-layer="819" to-port="0" />
		<edge from-layer="818" from-port="0" to-layer="819" to-port="1" />
		<edge from-layer="819" from-port="4" to-layer="821" to-port="0" />
		<edge from-layer="819" from-port="3" to-layer="900" to-port="0" />
		<edge from-layer="819" from-port="4" to-layer="900" to-port="1" />
		<edge from-layer="820" from-port="0" to-layer="821" to-port="1" />
		<edge from-layer="821" from-port="2" to-layer="823" to-port="0" />
		<edge from-layer="822" from-port="0" to-layer="823" to-port="1" />
		<edge from-layer="823" from-port="2" to-layer="824" to-port="0" />
		<edge from-layer="824" from-port="1" to-layer="826" to-port="0" />
		<edge from-layer="824" from-port="1" to-layer="869" to-port="1" />
		<edge from-layer="824" from-port="1" to-layer="862" to-port="1" />
		<edge from-layer="825" from-port="0" to-layer="826" to-port="1" />
		<edge from-layer="826" from-port="2" to-layer="832" to-port="0" />
		<edge from-layer="826" from-port="2" to-layer="836" to-port="0" />
		<edge from-layer="826" from-port="2" to-layer="829" to-port="0" />
		<edge from-layer="826" from-port="2" to-layer="828" to-port="0" />
		<edge from-layer="826" from-port="2" to-layer="831" to-port="0" />
		<edge from-layer="827" from-port="0" to-layer="828" to-port="1" />
		<edge from-layer="828" from-port="2" to-layer="829" to-port="1" />
		<edge from-layer="829" from-port="2" to-layer="850" to-port="0" />
		<edge from-layer="830" from-port="0" to-layer="831" to-port="1" />
		<edge from-layer="831" from-port="2" to-layer="832" to-port="1" />
		<edge from-layer="832" from-port="2" to-layer="833" to-port="0" />
		<edge from-layer="832" from-port="2" to-layer="833" to-port="1" />
		<edge from-layer="833" from-port="2" to-layer="835" to-port="0" />
		<edge from-layer="834" from-port="0" to-layer="835" to-port="1" />
		<edge from-layer="835" from-port="2" to-layer="843" to-port="0" />
		<edge from-layer="836" from-port="1" to-layer="839" to-port="0" />
		<edge from-layer="837" from-port="0" to-layer="839" to-port="1" />
		<edge from-layer="838" from-port="0" to-layer="839" to-port="2" />
		<edge from-layer="839" from-port="3" to-layer="841" to-port="0" />
		<edge from-layer="840" from-port="0" to-layer="841" to-port="1" />
		<edge from-layer="841" from-port="2" to-layer="842" to-port="0" />
		<edge from-layer="842" from-port="1" to-layer="845" to-port="0" />
		<edge from-layer="842" from-port="1" to-layer="843" to-port="1" />
		<edge from-layer="843" from-port="2" to-layer="846" to-port="0" />
		<edge from-layer="844" from-port="0" to-layer="845" to-port="1" />
		<edge from-layer="845" from-port="2" to-layer="846" to-port="1" />
		<edge from-layer="846" from-port="2" to-layer="847" to-port="0" />
		<edge from-layer="847" from-port="1" to-layer="849" to-port="0" />
		<edge from-layer="848" from-port="0" to-layer="849" to-port="1" />
		<edge from-layer="849" from-port="2" to-layer="850" to-port="1" />
		<edge from-layer="850" from-port="2" to-layer="852" to-port="0" />
		<edge from-layer="851" from-port="0" to-layer="852" to-port="1" />
		<edge from-layer="852" from-port="2" to-layer="854" to-port="0" />
		<edge from-layer="853" from-port="0" to-layer="854" to-port="1" />
		<edge from-layer="854" from-port="2" to-layer="855" to-port="0" />
		<edge from-layer="855" from-port="1" to-layer="867" to-port="0" />
		<edge from-layer="855" from-port="1" to-layer="857" to-port="0" />
		<edge from-layer="855" from-port="1" to-layer="859" to-port="0" />
		<edge from-layer="856" from-port="0" to-layer="857" to-port="1" />
		<edge from-layer="857" from-port="2" to-layer="860" to-port="0" />
		<edge from-layer="858" from-port="0" to-layer="859" to-port="1" />
		<edge from-layer="859" from-port="2" to-layer="860" to-port="1" />
		<edge from-layer="860" from-port="2" to-layer="861" to-port="0" />
		<edge from-layer="861" from-port="1" to-layer="862" to-port="0" />
		<edge from-layer="862" from-port="2" to-layer="865" to-port="0" />
		<edge from-layer="863" from-port="0" to-layer="865" to-port="1" />
		<edge from-layer="864" from-port="0" to-layer="865" to-port="2" />
		<edge from-layer="865" from-port="3" to-layer="873" to-port="0" />
		<edge from-layer="865" from-port="4" to-layer="874" to-port="0" />
		<edge from-layer="866" from-port="0" to-layer="867" to-port="1" />
		<edge from-layer="867" from-port="2" to-layer="868" to-port="0" />
		<edge from-layer="868" from-port="1" to-layer="869" to-port="0" />
		<edge from-layer="869" from-port="2" to-layer="872" to-port="0" />
		<edge from-layer="870" from-port="0" to-layer="872" to-port="1" />
		<edge from-layer="871" from-port="0" to-layer="872" to-port="2" />
		<edge from-layer="872" from-port="4" to-layer="873" to-port="1" />
		<edge from-layer="872" from-port="3" to-layer="874" to-port="1" />
		<edge from-layer="873" from-port="2" to-layer="875" to-port="0" />
		<edge from-layer="874" from-port="2" to-layer="875" to-port="1" />
		<edge from-layer="875" from-port="2" to-layer="877" to-port="0" />
		<edge from-layer="876" from-port="0" to-layer="877" to-port="1" />
		<edge from-layer="877" from-port="3" to-layer="879" to-port="0" />
		<edge from-layer="877" from-port="4" to-layer="888" to-port="0" />
		<edge from-layer="878" from-port="0" to-layer="879" to-port="1" />
		<edge from-layer="879" from-port="2" to-layer="881" to-port="0" />
		<edge from-layer="879" from-port="2" to-layer="885" to-port="0" />
		<edge from-layer="880" from-port="0" to-layer="881" to-port="1" />
		<edge from-layer="881" from-port="2" to-layer="883" to-port="0" />
		<edge from-layer="882" from-port="0" to-layer="883" to-port="1" />
		<edge from-layer="883" from-port="2" to-layer="886" to-port="0" />
		<edge from-layer="884" from-port="0" to-layer="885" to-port="1" />
		<edge from-layer="885" from-port="2" to-layer="886" to-port="1" />
		<edge from-layer="886" from-port="2" to-layer="891" to-port="0" />
		<edge from-layer="887" from-port="0" to-layer="888" to-port="1" />
		<edge from-layer="888" from-port="2" to-layer="890" to-port="0" />
		<edge from-layer="888" from-port="2" to-layer="891" to-port="2" />
		<edge from-layer="889" from-port="0" to-layer="890" to-port="1" />
		<edge from-layer="890" from-port="2" to-layer="891" to-port="1" />
		<edge from-layer="891" from-port="3" to-layer="895" to-port="1" />
		<edge from-layer="891" from-port="3" to-layer="893" to-port="0" />
		<edge from-layer="892" from-port="0" to-layer="893" to-port="1" />
		<edge from-layer="893" from-port="2" to-layer="894" to-port="0" />
		<edge from-layer="894" from-port="1" to-layer="895" to-port="0" />
		<edge from-layer="895" from-port="2" to-layer="898" to-port="0" />
		<edge from-layer="896" from-port="0" to-layer="898" to-port="1" />
		<edge from-layer="897" from-port="0" to-layer="898" to-port="2" />
		<edge from-layer="898" from-port="3" to-layer="899" to-port="0" />
		<edge from-layer="898" from-port="4" to-layer="899" to-port="1" />
		<edge from-layer="899" from-port="2" to-layer="900" to-port="2" />
		<edge from-layer="900" from-port="3" to-layer="902" to-port="0" />
		<edge from-layer="901" from-port="0" to-layer="902" to-port="1" />
		<edge from-layer="902" from-port="2" to-layer="904" to-port="0" />
		<edge from-layer="903" from-port="0" to-layer="904" to-port="1" />
		<edge from-layer="904" from-port="2" to-layer="905" to-port="0" />
		<edge from-layer="905" from-port="1" to-layer="907" to-port="0" />
		<edge from-layer="905" from-port="1" to-layer="938" to-port="0" />
		<edge from-layer="905" from-port="1" to-layer="921" to-port="0" />
		<edge from-layer="906" from-port="0" to-layer="907" to-port="1" />
		<edge from-layer="907" from-port="2" to-layer="909" to-port="0" />
		<edge from-layer="908" from-port="0" to-layer="909" to-port="1" />
		<edge from-layer="909" from-port="2" to-layer="910" to-port="0" />
		<edge from-layer="910" from-port="1" to-layer="912" to-port="0" />
		<edge from-layer="911" from-port="0" to-layer="912" to-port="1" />
		<edge from-layer="912" from-port="2" to-layer="914" to-port="0" />
		<edge from-layer="913" from-port="0" to-layer="914" to-port="1" />
		<edge from-layer="914" from-port="2" to-layer="915" to-port="0" />
		<edge from-layer="915" from-port="1" to-layer="917" to-port="0" />
		<edge from-layer="916" from-port="0" to-layer="917" to-port="1" />
		<edge from-layer="917" from-port="2" to-layer="919" to-port="0" />
		<edge from-layer="918" from-port="0" to-layer="919" to-port="1" />
		<edge from-layer="919" from-port="2" to-layer="934" to-port="0" />
		<edge from-layer="920" from-port="0" to-layer="921" to-port="1" />
		<edge from-layer="921" from-port="2" to-layer="923" to-port="0" />
		<edge from-layer="922" from-port="0" to-layer="923" to-port="1" />
		<edge from-layer="923" from-port="2" to-layer="924" to-port="0" />
		<edge from-layer="924" from-port="1" to-layer="926" to-port="0" />
		<edge from-layer="925" from-port="0" to-layer="926" to-port="1" />
		<edge from-layer="926" from-port="2" to-layer="928" to-port="0" />
		<edge from-layer="927" from-port="0" to-layer="928" to-port="1" />
		<edge from-layer="928" from-port="2" to-layer="929" to-port="0" />
		<edge from-layer="929" from-port="1" to-layer="931" to-port="0" />
		<edge from-layer="930" from-port="0" to-layer="931" to-port="1" />
		<edge from-layer="931" from-port="2" to-layer="933" to-port="0" />
		<edge from-layer="932" from-port="0" to-layer="933" to-port="1" />
		<edge from-layer="933" from-port="2" to-layer="934" to-port="1" />
		<edge from-layer="934" from-port="2" to-layer="936" to-port="0" />
		<edge from-layer="935" from-port="0" to-layer="936" to-port="1" />
		<edge from-layer="936" from-port="2" to-layer="1067" to-port="1" />
		<edge from-layer="937" from-port="0" to-layer="938" to-port="1" />
		<edge from-layer="938" from-port="2" to-layer="940" to-port="0" />
		<edge from-layer="939" from-port="0" to-layer="940" to-port="1" />
		<edge from-layer="940" from-port="2" to-layer="941" to-port="0" />
		<edge from-layer="941" from-port="1" to-layer="942" to-port="0" />
		<edge from-layer="942" from-port="2" to-layer="944" to-port="0" />
		<edge from-layer="943" from-port="0" to-layer="944" to-port="1" />
		<edge from-layer="944" from-port="2" to-layer="946" to-port="0" />
		<edge from-layer="945" from-port="0" to-layer="946" to-port="1" />
		<edge from-layer="946" from-port="2" to-layer="947" to-port="0" />
		<edge from-layer="947" from-port="1" to-layer="949" to-port="0" />
		<edge from-layer="948" from-port="0" to-layer="949" to-port="1" />
		<edge from-layer="949" from-port="4" to-layer="951" to-port="0" />
		<edge from-layer="949" from-port="4" to-layer="1030" to-port="1" />
		<edge from-layer="949" from-port="3" to-layer="1030" to-port="0" />
		<edge from-layer="950" from-port="0" to-layer="951" to-port="1" />
		<edge from-layer="951" from-port="2" to-layer="953" to-port="0" />
		<edge from-layer="952" from-port="0" to-layer="953" to-port="1" />
		<edge from-layer="953" from-port="2" to-layer="954" to-port="0" />
		<edge from-layer="954" from-port="1" to-layer="999" to-port="1" />
		<edge from-layer="954" from-port="1" to-layer="992" to-port="1" />
		<edge from-layer="954" from-port="1" to-layer="956" to-port="0" />
		<edge from-layer="955" from-port="0" to-layer="956" to-port="1" />
		<edge from-layer="956" from-port="2" to-layer="959" to-port="0" />
		<edge from-layer="956" from-port="2" to-layer="961" to-port="0" />
		<edge from-layer="956" from-port="2" to-layer="962" to-port="0" />
		<edge from-layer="956" from-port="2" to-layer="966" to-port="0" />
		<edge from-layer="956" from-port="2" to-layer="958" to-port="0" />
		<edge from-layer="957" from-port="0" to-layer="958" to-port="1" />
		<edge from-layer="958" from-port="2" to-layer="959" to-port="1" />
		<edge from-layer="959" from-port="2" to-layer="980" to-port="0" />
		<edge from-layer="960" from-port="0" to-layer="961" to-port="1" />
		<edge from-layer="961" from-port="2" to-layer="962" to-port="1" />
		<edge from-layer="962" from-port="2" to-layer="963" to-port="0" />
		<edge from-layer="962" from-port="2" to-layer="963" to-port="1" />
		<edge from-layer="963" from-port="2" to-layer="965" to-port="0" />
		<edge from-layer="964" from-port="0" to-layer="965" to-port="1" />
		<edge from-layer="965" from-port="2" to-layer="973" to-port="0" />
		<edge from-layer="966" from-port="1" to-layer="969" to-port="0" />
		<edge from-layer="967" from-port="0" to-layer="969" to-port="1" />
		<edge from-layer="968" from-port="0" to-layer="969" to-port="2" />
		<edge from-layer="969" from-port="3" to-layer="971" to-port="0" />
		<edge from-layer="970" from-port="0" to-layer="971" to-port="1" />
		<edge from-layer="971" from-port="2" to-layer="972" to-port="0" />
		<edge from-layer="972" from-port="1" to-layer="973" to-port="1" />
		<edge from-layer="972" from-port="1" to-layer="975" to-port="0" />
		<edge from-layer="973" from-port="2" to-layer="976" to-port="0" />
		<edge from-layer="974" from-port="0" to-layer="975" to-port="1" />
		<edge from-layer="975" from-port="2" to-layer="976" to-port="1" />
		<edge from-layer="976" from-port="2" to-layer="977" to-port="0" />
		<edge from-layer="977" from-port="1" to-layer="979" to-port="0" />
		<edge from-layer="978" from-port="0" to-layer="979" to-port="1" />
		<edge from-layer="979" from-port="2" to-layer="980" to-port="1" />
		<edge from-layer="980" from-port="2" to-layer="982" to-port="0" />
		<edge from-layer="981" from-port="0" to-layer="982" to-port="1" />
		<edge from-layer="982" from-port="2" to-layer="984" to-port="0" />
		<edge from-layer="983" from-port="0" to-layer="984" to-port="1" />
		<edge from-layer="984" from-port="2" to-layer="985" to-port="0" />
		<edge from-layer="985" from-port="1" to-layer="987" to-port="0" />
		<edge from-layer="985" from-port="1" to-layer="989" to-port="0" />
		<edge from-layer="985" from-port="1" to-layer="997" to-port="0" />
		<edge from-layer="986" from-port="0" to-layer="987" to-port="1" />
		<edge from-layer="987" from-port="2" to-layer="990" to-port="0" />
		<edge from-layer="988" from-port="0" to-layer="989" to-port="1" />
		<edge from-layer="989" from-port="2" to-layer="990" to-port="1" />
		<edge from-layer="990" from-port="2" to-layer="991" to-port="0" />
		<edge from-layer="991" from-port="1" to-layer="992" to-port="0" />
		<edge from-layer="992" from-port="2" to-layer="995" to-port="0" />
		<edge from-layer="993" from-port="0" to-layer="995" to-port="1" />
		<edge from-layer="994" from-port="0" to-layer="995" to-port="2" />
		<edge from-layer="995" from-port="3" to-layer="1003" to-port="0" />
		<edge from-layer="995" from-port="4" to-layer="1004" to-port="0" />
		<edge from-layer="996" from-port="0" to-layer="997" to-port="1" />
		<edge from-layer="997" from-port="2" to-layer="998" to-port="0" />
		<edge from-layer="998" from-port="1" to-layer="999" to-port="0" />
		<edge from-layer="999" from-port="2" to-layer="1002" to-port="0" />
		<edge from-layer="1000" from-port="0" to-layer="1002" to-port="1" />
		<edge from-layer="1001" from-port="0" to-layer="1002" to-port="2" />
		<edge from-layer="1002" from-port="4" to-layer="1003" to-port="1" />
		<edge from-layer="1002" from-port="3" to-layer="1004" to-port="1" />
		<edge from-layer="1003" from-port="2" to-layer="1005" to-port="0" />
		<edge from-layer="1004" from-port="2" to-layer="1005" to-port="1" />
		<edge from-layer="1005" from-port="2" to-layer="1007" to-port="0" />
		<edge from-layer="1006" from-port="0" to-layer="1007" to-port="1" />
		<edge from-layer="1007" from-port="3" to-layer="1009" to-port="0" />
		<edge from-layer="1007" from-port="4" to-layer="1018" to-port="0" />
		<edge from-layer="1008" from-port="0" to-layer="1009" to-port="1" />
		<edge from-layer="1009" from-port="2" to-layer="1015" to-port="0" />
		<edge from-layer="1009" from-port="2" to-layer="1011" to-port="0" />
		<edge from-layer="1010" from-port="0" to-layer="1011" to-port="1" />
		<edge from-layer="1011" from-port="2" to-layer="1013" to-port="0" />
		<edge from-layer="1012" from-port="0" to-layer="1013" to-port="1" />
		<edge from-layer="1013" from-port="2" to-layer="1016" to-port="0" />
		<edge from-layer="1014" from-port="0" to-layer="1015" to-port="1" />
		<edge from-layer="1015" from-port="2" to-layer="1016" to-port="1" />
		<edge from-layer="1016" from-port="2" to-layer="1021" to-port="0" />
		<edge from-layer="1017" from-port="0" to-layer="1018" to-port="1" />
		<edge from-layer="1018" from-port="2" to-layer="1020" to-port="0" />
		<edge from-layer="1018" from-port="2" to-layer="1021" to-port="2" />
		<edge from-layer="1019" from-port="0" to-layer="1020" to-port="1" />
		<edge from-layer="1020" from-port="2" to-layer="1021" to-port="1" />
		<edge from-layer="1021" from-port="3" to-layer="1025" to-port="1" />
		<edge from-layer="1021" from-port="3" to-layer="1023" to-port="0" />
		<edge from-layer="1022" from-port="0" to-layer="1023" to-port="1" />
		<edge from-layer="1023" from-port="2" to-layer="1024" to-port="0" />
		<edge from-layer="1024" from-port="1" to-layer="1025" to-port="0" />
		<edge from-layer="1025" from-port="2" to-layer="1028" to-port="0" />
		<edge from-layer="1026" from-port="0" to-layer="1028" to-port="1" />
		<edge from-layer="1027" from-port="0" to-layer="1028" to-port="2" />
		<edge from-layer="1028" from-port="3" to-layer="1029" to-port="0" />
		<edge from-layer="1028" from-port="4" to-layer="1029" to-port="1" />
		<edge from-layer="1029" from-port="2" to-layer="1030" to-port="2" />
		<edge from-layer="1030" from-port="3" to-layer="1032" to-port="0" />
		<edge from-layer="1031" from-port="0" to-layer="1032" to-port="1" />
		<edge from-layer="1032" from-port="2" to-layer="1034" to-port="0" />
		<edge from-layer="1033" from-port="0" to-layer="1034" to-port="1" />
		<edge from-layer="1034" from-port="2" to-layer="1035" to-port="0" />
		<edge from-layer="1035" from-port="1" to-layer="1037" to-port="0" />
		<edge from-layer="1035" from-port="1" to-layer="1051" to-port="0" />
		<edge from-layer="1036" from-port="0" to-layer="1037" to-port="1" />
		<edge from-layer="1037" from-port="2" to-layer="1039" to-port="0" />
		<edge from-layer="1038" from-port="0" to-layer="1039" to-port="1" />
		<edge from-layer="1039" from-port="2" to-layer="1040" to-port="0" />
		<edge from-layer="1040" from-port="1" to-layer="1042" to-port="0" />
		<edge from-layer="1041" from-port="0" to-layer="1042" to-port="1" />
		<edge from-layer="1042" from-port="2" to-layer="1044" to-port="0" />
		<edge from-layer="1043" from-port="0" to-layer="1044" to-port="1" />
		<edge from-layer="1044" from-port="2" to-layer="1045" to-port="0" />
		<edge from-layer="1045" from-port="1" to-layer="1047" to-port="0" />
		<edge from-layer="1046" from-port="0" to-layer="1047" to-port="1" />
		<edge from-layer="1047" from-port="2" to-layer="1049" to-port="0" />
		<edge from-layer="1048" from-port="0" to-layer="1049" to-port="1" />
		<edge from-layer="1049" from-port="2" to-layer="1064" to-port="0" />
		<edge from-layer="1050" from-port="0" to-layer="1051" to-port="1" />
		<edge from-layer="1051" from-port="2" to-layer="1053" to-port="0" />
		<edge from-layer="1052" from-port="0" to-layer="1053" to-port="1" />
		<edge from-layer="1053" from-port="2" to-layer="1054" to-port="0" />
		<edge from-layer="1054" from-port="1" to-layer="1056" to-port="0" />
		<edge from-layer="1055" from-port="0" to-layer="1056" to-port="1" />
		<edge from-layer="1056" from-port="2" to-layer="1058" to-port="0" />
		<edge from-layer="1057" from-port="0" to-layer="1058" to-port="1" />
		<edge from-layer="1058" from-port="2" to-layer="1059" to-port="0" />
		<edge from-layer="1059" from-port="1" to-layer="1061" to-port="0" />
		<edge from-layer="1060" from-port="0" to-layer="1061" to-port="1" />
		<edge from-layer="1061" from-port="2" to-layer="1063" to-port="0" />
		<edge from-layer="1062" from-port="0" to-layer="1063" to-port="1" />
		<edge from-layer="1063" from-port="2" to-layer="1064" to-port="1" />
		<edge from-layer="1064" from-port="2" to-layer="1066" to-port="0" />
		<edge from-layer="1065" from-port="0" to-layer="1066" to-port="1" />
		<edge from-layer="1066" from-port="2" to-layer="1067" to-port="2" />
		<edge from-layer="1067" from-port="3" to-layer="1070" to-port="0" />
		<edge from-layer="1068" from-port="0" to-layer="1070" to-port="1" />
		<edge from-layer="1069" from-port="0" to-layer="1070" to-port="2" />
		<edge from-layer="1070" from-port="3" to-layer="1072" to-port="0" />
		<edge from-layer="1070" from-port="4" to-layer="1115" to-port="0" />
		<edge from-layer="1071" from-port="0" to-layer="1072" to-port="1" />
		<edge from-layer="1072" from-port="2" to-layer="1074" to-port="0" />
		<edge from-layer="1073" from-port="0" to-layer="1074" to-port="1" />
		<edge from-layer="1074" from-port="2" to-layer="1075" to-port="0" />
		<edge from-layer="1075" from-port="1" to-layer="1077" to-port="0" />
		<edge from-layer="1076" from-port="0" to-layer="1077" to-port="1" />
		<edge from-layer="1077" from-port="2" to-layer="1079" to-port="0" />
		<edge from-layer="1078" from-port="0" to-layer="1079" to-port="1" />
		<edge from-layer="1079" from-port="2" to-layer="1083" to-port="0" />
		<edge from-layer="1079" from-port="2" to-layer="1106" to-port="0" />
		<edge from-layer="1079" from-port="2" to-layer="1094" to-port="0" />
		<edge from-layer="1080" from-port="0" to-layer="1094" to-port="1" />
		<edge from-layer="1081" from-port="0" to-layer="1092" to-port="0" />
		<edge from-layer="1082" from-port="0" to-layer="1092" to-port="1" />
		<edge from-layer="1083" from-port="1" to-layer="1086" to-port="0" />
		<edge from-layer="1084" from-port="0" to-layer="1086" to-port="1" />
		<edge from-layer="1085" from-port="0" to-layer="1086" to-port="2" />
		<edge from-layer="1086" from-port="3" to-layer="1088" to-port="0" />
		<edge from-layer="1087" from-port="0" to-layer="1088" to-port="1" />
		<edge from-layer="1088" from-port="2" to-layer="1090" to-port="0" />
		<edge from-layer="1089" from-port="0" to-layer="1090" to-port="1" />
		<edge from-layer="1090" from-port="2" to-layer="1092" to-port="2" />
		<edge from-layer="1090" from-port="2" to-layer="1100" to-port="2" />
		<edge from-layer="1090" from-port="2" to-layer="1103" to-port="0" />
		<edge from-layer="1091" from-port="0" to-layer="1092" to-port="3" />
		<edge from-layer="1092" from-port="4" to-layer="1094" to-port="2" />
		<edge from-layer="1093" from-port="0" to-layer="1094" to-port="3" />
		<edge from-layer="1094" from-port="4" to-layer="1095" to-port="1" />
		<edge from-layer="1095" from-port="2" to-layer="1111" to-port="1" />
		<edge from-layer="1095" from-port="2" to-layer="1108" to-port="0" />
		<edge from-layer="1096" from-port="0" to-layer="1107" to-port="0" />
		<edge from-layer="1097" from-port="0" to-layer="1100" to-port="0" />
		<edge from-layer="1098" from-port="0" to-layer="1100" to-port="1" />
		<edge from-layer="1098" from-port="0" to-layer="1104" to-port="1" />
		<edge from-layer="1099" from-port="0" to-layer="1104" to-port="3" />
		<edge from-layer="1099" from-port="0" to-layer="1100" to-port="3" />
		<edge from-layer="1100" from-port="4" to-layer="1106" to-port="1" />
		<edge from-layer="1101" from-port="0" to-layer="1104" to-port="0" />
		<edge from-layer="1102" from-port="0" to-layer="1103" to-port="1" />
		<edge from-layer="1103" from-port="2" to-layer="1104" to-port="2" />
		<edge from-layer="1104" from-port="4" to-layer="1106" to-port="2" />
		<edge from-layer="1105" from-port="0" to-layer="1106" to-port="3" />
		<edge from-layer="1106" from-port="4" to-layer="1107" to-port="1" />
		<edge from-layer="1107" from-port="2" to-layer="1108" to-port="1" />
		<edge from-layer="1107" from-port="2" to-layer="1111" to-port="0" />
		<edge from-layer="1108" from-port="2" to-layer="1110" to-port="0" />
		<edge from-layer="1109" from-port="0" to-layer="1110" to-port="1" />
		<edge from-layer="1110" from-port="2" to-layer="1112" to-port="0" />
		<edge from-layer="1111" from-port="2" to-layer="1112" to-port="1" />
		<edge from-layer="1112" from-port="2" to-layer="1114" to-port="0" />
		<edge from-layer="1113" from-port="0" to-layer="1114" to-port="1" />
		<edge from-layer="1114" from-port="2" to-layer="1116" to-port="0" />
		<edge from-layer="1115" from-port="1" to-layer="1116" to-port="1" />
		<edge from-layer="1116" from-port="2" to-layer="1117" to-port="0" />
	</edges>
	<rt_info>
		<MO_version value="2023.2.0-13089-cfd42bd2cb0-HEAD" />
		<Runtime_version value="2023.2.0-13089-cfd42bd2cb0-HEAD" />
		<conversion_parameters>
			<framework value="onnx" />
			<input_model value="DIR/outpost_nano_100epoch_1_8.onnx" />
			<is_python_api_used value="True" />
			<model_name value="C:\Users\MicDZ\green\YOLOv8\YOLOv8\ultralytics\cfg\models\v8\YOLOv8n-C2f-SCcConv" />
		</conversion_parameters>
		<framework>
			<author value="Ultralytics" />
			<batch value="1" />
			<date value="2024-08-01T13:38:46.739056" />
			<description value="Ultralytics C:\Users\MicDZ\green\YOLOv8\YOLOv8\ultralytics\cfg\models\v8\YOLOv8n-C2f-SCcConv model trained on dataset/data.yaml" />
			<imgsz value="[416, 416]" />
			<license value="AGPL-3.0 https://ultralytics.com/license" />
			<names value="{0: 'green'}" />
			<stride value="32" />
			<task value="detect" />
			<version value="8.0.202" />
		</framework>
		<legacy_frontend value="False" />
		<model_info>
			<iou_threshold value="0.5" />
			<labels value="green" />
			<model_type value="YOLOv8" />
			<pad_value value="114" />
			<resize_type value="fit_to_window_letterbox" />
			<reverse_input_channels value="YES" />
			<scale_values value="255" />
		</model_info>
	</rt_info>
</net>
